<?xml version="1.0"?>
<net name="torch_jit" version="11">
	<layers>
		<layer id="0" name="image" type="Parameter" version="opset1">
			<data shape="?,3,736,992" element_type="f32" />
			<output>
				<port id="0" precision="FP32" names="image">
					<dim>-1</dim>
					<dim>3</dim>
					<dim>736</dim>
					<dim>992</dim>
				</port>
			</output>
		</layer>
		<layer id="1" name="/Constant_30" type="Const" version="opset1">
			<data element_type="f32" shape="1, 1, 4" offset="0" size="16" />
			<output>
				<port id="0" precision="FP32" names="/Constant_30_output_0">
					<dim>1</dim>
					<dim>1</dim>
					<dim>4</dim>
				</port>
			</output>
		</layer>
		<layer id="2" name="/Constant_17" type="Const" version="opset1">
			<data element_type="i64" shape="" offset="16" size="8" />
			<output>
				<port id="0" precision="I64" names="/Constant_17_output_0" />
			</output>
		</layer>
		<layer id="3" name="Constant_42754" type="Const" version="opset1">
			<data element_type="f32" shape="1, 3, 1, 1" offset="24" size="12" />
			<rt_info>
				<attribute name="preprocessing" version="0" />
			</rt_info>
			<output>
				<port id="0" precision="FP32">
					<dim>1</dim>
					<dim>3</dim>
					<dim>1</dim>
					<dim>1</dim>
				</port>
			</output>
		</layer>
		<layer id="4" name="Multiply_42756" type="Multiply" version="opset1">
			<data auto_broadcast="numpy" />
			<input>
				<port id="0" precision="FP32">
					<dim>-1</dim>
					<dim>3</dim>
					<dim>736</dim>
					<dim>992</dim>
				</port>
				<port id="1" precision="FP32">
					<dim>1</dim>
					<dim>3</dim>
					<dim>1</dim>
					<dim>1</dim>
				</port>
			</input>
			<output>
				<port id="2" precision="FP32">
					<dim>-1</dim>
					<dim>3</dim>
					<dim>736</dim>
					<dim>992</dim>
				</port>
			</output>
		</layer>
		<layer id="5" name="Constant_42758" type="Const" version="opset1">
			<data element_type="f32" shape="1, 3, 1, 1" offset="36" size="12" />
			<output>
				<port id="0" precision="FP32">
					<dim>1</dim>
					<dim>3</dim>
					<dim>1</dim>
					<dim>1</dim>
				</port>
			</output>
		</layer>
		<layer id="6" name="Divide_20989" type="Add" version="opset1">
			<data auto_broadcast="numpy" />
			<input>
				<port id="0" precision="FP32">
					<dim>-1</dim>
					<dim>3</dim>
					<dim>736</dim>
					<dim>992</dim>
				</port>
				<port id="1" precision="FP32">
					<dim>1</dim>
					<dim>3</dim>
					<dim>1</dim>
					<dim>1</dim>
				</port>
			</input>
			<output>
				<port id="2" precision="FP32">
					<dim>-1</dim>
					<dim>3</dim>
					<dim>736</dim>
					<dim>992</dim>
				</port>
			</output>
		</layer>
		<layer id="7" name="onnx::Conv_2290" type="Const" version="opset1">
			<data element_type="f32" shape="32, 3, 3, 3" offset="48" size="3456" />
			<output>
				<port id="0" precision="FP32" names="onnx::Conv_2290">
					<dim>32</dim>
					<dim>3</dim>
					<dim>3</dim>
					<dim>3</dim>
				</port>
			</output>
		</layer>
		<layer id="8" name="/backbone/init_block/conv/Conv/WithoutBiases" type="Convolution" version="opset1">
			<data strides="2, 2" dilations="1, 1" pads_begin="1, 1" pads_end="1, 1" auto_pad="explicit" />
			<input>
				<port id="0" precision="FP32">
					<dim>-1</dim>
					<dim>3</dim>
					<dim>736</dim>
					<dim>992</dim>
				</port>
				<port id="1" precision="FP32">
					<dim>32</dim>
					<dim>3</dim>
					<dim>3</dim>
					<dim>3</dim>
				</port>
			</input>
			<output>
				<port id="2" precision="FP32">
					<dim>-1</dim>
					<dim>32</dim>
					<dim>368</dim>
					<dim>496</dim>
				</port>
			</output>
		</layer>
		<layer id="9" name="Reshape_178" type="Const" version="opset1">
			<data element_type="f32" shape="1, 32, 1, 1" offset="3504" size="128" />
			<output>
				<port id="0" precision="FP32">
					<dim>1</dim>
					<dim>32</dim>
					<dim>1</dim>
					<dim>1</dim>
				</port>
			</output>
		</layer>
		<layer id="10" name="/backbone/init_block/conv/Conv" type="Add" version="opset1">
			<data auto_broadcast="numpy" />
			<input>
				<port id="0" precision="FP32">
					<dim>-1</dim>
					<dim>32</dim>
					<dim>368</dim>
					<dim>496</dim>
				</port>
				<port id="1" precision="FP32">
					<dim>1</dim>
					<dim>32</dim>
					<dim>1</dim>
					<dim>1</dim>
				</port>
			</input>
			<output>
				<port id="2" precision="FP32" names="/backbone/init_block/conv/Conv_output_0">
					<dim>-1</dim>
					<dim>32</dim>
					<dim>368</dim>
					<dim>496</dim>
				</port>
			</output>
		</layer>
		<layer id="11" name="/backbone/init_block/activ/Clip" type="Clamp" version="opset1">
			<data min="0" max="6" />
			<input>
				<port id="0" precision="FP32">
					<dim>-1</dim>
					<dim>32</dim>
					<dim>368</dim>
					<dim>496</dim>
				</port>
			</input>
			<output>
				<port id="1" precision="FP32" names="/backbone/init_block/activ/Clip_output_0">
					<dim>-1</dim>
					<dim>32</dim>
					<dim>368</dim>
					<dim>496</dim>
				</port>
			</output>
		</layer>
		<layer id="12" name="onnx::Conv_2293" type="Const" version="opset1">
			<data element_type="f32" shape="32, 32, 1, 1" offset="3632" size="4096" />
			<output>
				<port id="0" precision="FP32" names="onnx::Conv_2293">
					<dim>32</dim>
					<dim>32</dim>
					<dim>1</dim>
					<dim>1</dim>
				</port>
			</output>
		</layer>
		<layer id="13" name="/backbone/stage1/unit1/conv1/conv/Conv/WithoutBiases" type="Convolution" version="opset1">
			<data strides="1, 1" dilations="1, 1" pads_begin="0, 0" pads_end="0, 0" auto_pad="explicit" />
			<input>
				<port id="0" precision="FP32">
					<dim>-1</dim>
					<dim>32</dim>
					<dim>368</dim>
					<dim>496</dim>
				</port>
				<port id="1" precision="FP32">
					<dim>32</dim>
					<dim>32</dim>
					<dim>1</dim>
					<dim>1</dim>
				</port>
			</input>
			<output>
				<port id="2" precision="FP32">
					<dim>-1</dim>
					<dim>32</dim>
					<dim>368</dim>
					<dim>496</dim>
				</port>
			</output>
		</layer>
		<layer id="14" name="Reshape_198" type="Const" version="opset1">
			<data element_type="f32" shape="1, 32, 1, 1" offset="7728" size="128" />
			<output>
				<port id="0" precision="FP32">
					<dim>1</dim>
					<dim>32</dim>
					<dim>1</dim>
					<dim>1</dim>
				</port>
			</output>
		</layer>
		<layer id="15" name="/backbone/stage1/unit1/conv1/conv/Conv" type="Add" version="opset1">
			<data auto_broadcast="numpy" />
			<input>
				<port id="0" precision="FP32">
					<dim>-1</dim>
					<dim>32</dim>
					<dim>368</dim>
					<dim>496</dim>
				</port>
				<port id="1" precision="FP32">
					<dim>1</dim>
					<dim>32</dim>
					<dim>1</dim>
					<dim>1</dim>
				</port>
			</input>
			<output>
				<port id="2" precision="FP32" names="/backbone/stage1/unit1/conv1/conv/Conv_output_0">
					<dim>-1</dim>
					<dim>32</dim>
					<dim>368</dim>
					<dim>496</dim>
				</port>
			</output>
		</layer>
		<layer id="16" name="/backbone/stage1/unit1/conv1/activ/Clip" type="Clamp" version="opset1">
			<data min="0" max="6" />
			<input>
				<port id="0" precision="FP32">
					<dim>-1</dim>
					<dim>32</dim>
					<dim>368</dim>
					<dim>496</dim>
				</port>
			</input>
			<output>
				<port id="1" precision="FP32" names="/backbone/stage1/unit1/conv1/activ/Clip_output_0">
					<dim>-1</dim>
					<dim>32</dim>
					<dim>368</dim>
					<dim>496</dim>
				</port>
			</output>
		</layer>
		<layer id="17" name="Reshape_213" type="Const" version="opset1">
			<data element_type="f32" shape="32, 1, 1, 3, 3" offset="7856" size="1152" />
			<output>
				<port id="0" precision="FP32">
					<dim>32</dim>
					<dim>1</dim>
					<dim>1</dim>
					<dim>3</dim>
					<dim>3</dim>
				</port>
			</output>
		</layer>
		<layer id="18" name="/backbone/stage1/unit1/conv2/conv/Conv/WithoutBiases" type="GroupConvolution" version="opset1">
			<data strides="1, 1" pads_begin="1, 1" pads_end="1, 1" dilations="1, 1" auto_pad="explicit" />
			<input>
				<port id="0" precision="FP32">
					<dim>-1</dim>
					<dim>32</dim>
					<dim>368</dim>
					<dim>496</dim>
				</port>
				<port id="1" precision="FP32">
					<dim>32</dim>
					<dim>1</dim>
					<dim>1</dim>
					<dim>3</dim>
					<dim>3</dim>
				</port>
			</input>
			<output>
				<port id="2" precision="FP32">
					<dim>-1</dim>
					<dim>32</dim>
					<dim>368</dim>
					<dim>496</dim>
				</port>
			</output>
		</layer>
		<layer id="19" name="Reshape_265" type="Const" version="opset1">
			<data element_type="f32" shape="1, 32, 1, 1" offset="9008" size="128" />
			<output>
				<port id="0" precision="FP32">
					<dim>1</dim>
					<dim>32</dim>
					<dim>1</dim>
					<dim>1</dim>
				</port>
			</output>
		</layer>
		<layer id="20" name="/backbone/stage1/unit1/conv2/conv/Conv" type="Add" version="opset1">
			<data auto_broadcast="numpy" />
			<input>
				<port id="0" precision="FP32">
					<dim>-1</dim>
					<dim>32</dim>
					<dim>368</dim>
					<dim>496</dim>
				</port>
				<port id="1" precision="FP32">
					<dim>1</dim>
					<dim>32</dim>
					<dim>1</dim>
					<dim>1</dim>
				</port>
			</input>
			<output>
				<port id="2" precision="FP32" names="/backbone/stage1/unit1/conv2/conv/Conv_output_0">
					<dim>-1</dim>
					<dim>32</dim>
					<dim>368</dim>
					<dim>496</dim>
				</port>
			</output>
		</layer>
		<layer id="21" name="/backbone/stage1/unit1/conv2/activ/Clip" type="Clamp" version="opset1">
			<data min="0" max="6" />
			<input>
				<port id="0" precision="FP32">
					<dim>-1</dim>
					<dim>32</dim>
					<dim>368</dim>
					<dim>496</dim>
				</port>
			</input>
			<output>
				<port id="1" precision="FP32" names="/backbone/stage1/unit1/conv2/activ/Clip_output_0">
					<dim>-1</dim>
					<dim>32</dim>
					<dim>368</dim>
					<dim>496</dim>
				</port>
			</output>
		</layer>
		<layer id="22" name="onnx::Conv_2299" type="Const" version="opset1">
			<data element_type="f32" shape="16, 32, 1, 1" offset="9136" size="2048" />
			<output>
				<port id="0" precision="FP32" names="onnx::Conv_2299">
					<dim>16</dim>
					<dim>32</dim>
					<dim>1</dim>
					<dim>1</dim>
				</port>
			</output>
		</layer>
		<layer id="23" name="/backbone/stage1/unit1/conv3/conv/Conv/WithoutBiases" type="Convolution" version="opset1">
			<data strides="1, 1" dilations="1, 1" pads_begin="0, 0" pads_end="0, 0" auto_pad="explicit" />
			<input>
				<port id="0" precision="FP32">
					<dim>-1</dim>
					<dim>32</dim>
					<dim>368</dim>
					<dim>496</dim>
				</port>
				<port id="1" precision="FP32">
					<dim>16</dim>
					<dim>32</dim>
					<dim>1</dim>
					<dim>1</dim>
				</port>
			</input>
			<output>
				<port id="2" precision="FP32">
					<dim>-1</dim>
					<dim>16</dim>
					<dim>368</dim>
					<dim>496</dim>
				</port>
			</output>
		</layer>
		<layer id="24" name="Reshape_285" type="Const" version="opset1">
			<data element_type="f32" shape="1, 16, 1, 1" offset="11184" size="64" />
			<output>
				<port id="0" precision="FP32">
					<dim>1</dim>
					<dim>16</dim>
					<dim>1</dim>
					<dim>1</dim>
				</port>
			</output>
		</layer>
		<layer id="25" name="/backbone/stage1/unit1/conv3/conv/Conv" type="Add" version="opset1">
			<data auto_broadcast="numpy" />
			<input>
				<port id="0" precision="FP32">
					<dim>-1</dim>
					<dim>16</dim>
					<dim>368</dim>
					<dim>496</dim>
				</port>
				<port id="1" precision="FP32">
					<dim>1</dim>
					<dim>16</dim>
					<dim>1</dim>
					<dim>1</dim>
				</port>
			</input>
			<output>
				<port id="2" precision="FP32" names="/backbone/stage1/unit1/conv3/conv/Conv_output_0">
					<dim>-1</dim>
					<dim>16</dim>
					<dim>368</dim>
					<dim>496</dim>
				</port>
			</output>
		</layer>
		<layer id="26" name="onnx::Conv_2302" type="Const" version="opset1">
			<data element_type="f32" shape="96, 16, 1, 1" offset="11248" size="6144" />
			<output>
				<port id="0" precision="FP32" names="onnx::Conv_2302">
					<dim>96</dim>
					<dim>16</dim>
					<dim>1</dim>
					<dim>1</dim>
				</port>
			</output>
		</layer>
		<layer id="27" name="/backbone/stage2/unit1/conv1/conv/Conv/WithoutBiases" type="Convolution" version="opset1">
			<data strides="1, 1" dilations="1, 1" pads_begin="0, 0" pads_end="0, 0" auto_pad="explicit" />
			<input>
				<port id="0" precision="FP32">
					<dim>-1</dim>
					<dim>16</dim>
					<dim>368</dim>
					<dim>496</dim>
				</port>
				<port id="1" precision="FP32">
					<dim>96</dim>
					<dim>16</dim>
					<dim>1</dim>
					<dim>1</dim>
				</port>
			</input>
			<output>
				<port id="2" precision="FP32">
					<dim>-1</dim>
					<dim>96</dim>
					<dim>368</dim>
					<dim>496</dim>
				</port>
			</output>
		</layer>
		<layer id="28" name="Reshape_301" type="Const" version="opset1">
			<data element_type="f32" shape="1, 96, 1, 1" offset="17392" size="384" />
			<output>
				<port id="0" precision="FP32">
					<dim>1</dim>
					<dim>96</dim>
					<dim>1</dim>
					<dim>1</dim>
				</port>
			</output>
		</layer>
		<layer id="29" name="/backbone/stage2/unit1/conv1/conv/Conv" type="Add" version="opset1">
			<data auto_broadcast="numpy" />
			<input>
				<port id="0" precision="FP32">
					<dim>-1</dim>
					<dim>96</dim>
					<dim>368</dim>
					<dim>496</dim>
				</port>
				<port id="1" precision="FP32">
					<dim>1</dim>
					<dim>96</dim>
					<dim>1</dim>
					<dim>1</dim>
				</port>
			</input>
			<output>
				<port id="2" precision="FP32" names="/backbone/stage2/unit1/conv1/conv/Conv_output_0">
					<dim>-1</dim>
					<dim>96</dim>
					<dim>368</dim>
					<dim>496</dim>
				</port>
			</output>
		</layer>
		<layer id="30" name="/backbone/stage2/unit1/conv1/activ/Clip" type="Clamp" version="opset1">
			<data min="0" max="6" />
			<input>
				<port id="0" precision="FP32">
					<dim>-1</dim>
					<dim>96</dim>
					<dim>368</dim>
					<dim>496</dim>
				</port>
			</input>
			<output>
				<port id="1" precision="FP32" names="/backbone/stage2/unit1/conv1/activ/Clip_output_0">
					<dim>-1</dim>
					<dim>96</dim>
					<dim>368</dim>
					<dim>496</dim>
				</port>
			</output>
		</layer>
		<layer id="31" name="Reshape_316" type="Const" version="opset1">
			<data element_type="f32" shape="96, 1, 1, 3, 3" offset="17776" size="3456" />
			<output>
				<port id="0" precision="FP32">
					<dim>96</dim>
					<dim>1</dim>
					<dim>1</dim>
					<dim>3</dim>
					<dim>3</dim>
				</port>
			</output>
		</layer>
		<layer id="32" name="/backbone/stage2/unit1/conv2/conv/Conv/WithoutBiases" type="GroupConvolution" version="opset1">
			<data strides="2, 2" pads_begin="1, 1" pads_end="1, 1" dilations="1, 1" auto_pad="explicit" />
			<input>
				<port id="0" precision="FP32">
					<dim>-1</dim>
					<dim>96</dim>
					<dim>368</dim>
					<dim>496</dim>
				</port>
				<port id="1" precision="FP32">
					<dim>96</dim>
					<dim>1</dim>
					<dim>1</dim>
					<dim>3</dim>
					<dim>3</dim>
				</port>
			</input>
			<output>
				<port id="2" precision="FP32">
					<dim>-1</dim>
					<dim>96</dim>
					<dim>184</dim>
					<dim>248</dim>
				</port>
			</output>
		</layer>
		<layer id="33" name="Reshape_368" type="Const" version="opset1">
			<data element_type="f32" shape="1, 96, 1, 1" offset="21232" size="384" />
			<output>
				<port id="0" precision="FP32">
					<dim>1</dim>
					<dim>96</dim>
					<dim>1</dim>
					<dim>1</dim>
				</port>
			</output>
		</layer>
		<layer id="34" name="/backbone/stage2/unit1/conv2/conv/Conv" type="Add" version="opset1">
			<data auto_broadcast="numpy" />
			<input>
				<port id="0" precision="FP32">
					<dim>-1</dim>
					<dim>96</dim>
					<dim>184</dim>
					<dim>248</dim>
				</port>
				<port id="1" precision="FP32">
					<dim>1</dim>
					<dim>96</dim>
					<dim>1</dim>
					<dim>1</dim>
				</port>
			</input>
			<output>
				<port id="2" precision="FP32" names="/backbone/stage2/unit1/conv2/conv/Conv_output_0">
					<dim>-1</dim>
					<dim>96</dim>
					<dim>184</dim>
					<dim>248</dim>
				</port>
			</output>
		</layer>
		<layer id="35" name="/backbone/stage2/unit1/conv2/activ/Clip" type="Clamp" version="opset1">
			<data min="0" max="6" />
			<input>
				<port id="0" precision="FP32">
					<dim>-1</dim>
					<dim>96</dim>
					<dim>184</dim>
					<dim>248</dim>
				</port>
			</input>
			<output>
				<port id="1" precision="FP32" names="/backbone/stage2/unit1/conv2/activ/Clip_output_0">
					<dim>-1</dim>
					<dim>96</dim>
					<dim>184</dim>
					<dim>248</dim>
				</port>
			</output>
		</layer>
		<layer id="36" name="onnx::Conv_2308" type="Const" version="opset1">
			<data element_type="f32" shape="24, 96, 1, 1" offset="21616" size="9216" />
			<output>
				<port id="0" precision="FP32" names="onnx::Conv_2308">
					<dim>24</dim>
					<dim>96</dim>
					<dim>1</dim>
					<dim>1</dim>
				</port>
			</output>
		</layer>
		<layer id="37" name="/backbone/stage2/unit1/conv3/conv/Conv/WithoutBiases" type="Convolution" version="opset1">
			<data strides="1, 1" dilations="1, 1" pads_begin="0, 0" pads_end="0, 0" auto_pad="explicit" />
			<input>
				<port id="0" precision="FP32">
					<dim>-1</dim>
					<dim>96</dim>
					<dim>184</dim>
					<dim>248</dim>
				</port>
				<port id="1" precision="FP32">
					<dim>24</dim>
					<dim>96</dim>
					<dim>1</dim>
					<dim>1</dim>
				</port>
			</input>
			<output>
				<port id="2" precision="FP32">
					<dim>-1</dim>
					<dim>24</dim>
					<dim>184</dim>
					<dim>248</dim>
				</port>
			</output>
		</layer>
		<layer id="38" name="Reshape_388" type="Const" version="opset1">
			<data element_type="f32" shape="1, 24, 1, 1" offset="30832" size="96" />
			<output>
				<port id="0" precision="FP32">
					<dim>1</dim>
					<dim>24</dim>
					<dim>1</dim>
					<dim>1</dim>
				</port>
			</output>
		</layer>
		<layer id="39" name="/backbone/stage2/unit1/conv3/conv/Conv" type="Add" version="opset1">
			<data auto_broadcast="numpy" />
			<input>
				<port id="0" precision="FP32">
					<dim>-1</dim>
					<dim>24</dim>
					<dim>184</dim>
					<dim>248</dim>
				</port>
				<port id="1" precision="FP32">
					<dim>1</dim>
					<dim>24</dim>
					<dim>1</dim>
					<dim>1</dim>
				</port>
			</input>
			<output>
				<port id="2" precision="FP32" names="/backbone/stage2/unit1/conv3/conv/Conv_output_0">
					<dim>-1</dim>
					<dim>24</dim>
					<dim>184</dim>
					<dim>248</dim>
				</port>
			</output>
		</layer>
		<layer id="40" name="onnx::Conv_2311" type="Const" version="opset1">
			<data element_type="f32" shape="144, 24, 1, 1" offset="30928" size="13824" />
			<output>
				<port id="0" precision="FP32" names="onnx::Conv_2311">
					<dim>144</dim>
					<dim>24</dim>
					<dim>1</dim>
					<dim>1</dim>
				</port>
			</output>
		</layer>
		<layer id="41" name="/backbone/stage2/unit2/conv1/conv/Conv/WithoutBiases" type="Convolution" version="opset1">
			<data strides="1, 1" dilations="1, 1" pads_begin="0, 0" pads_end="0, 0" auto_pad="explicit" />
			<input>
				<port id="0" precision="FP32">
					<dim>-1</dim>
					<dim>24</dim>
					<dim>184</dim>
					<dim>248</dim>
				</port>
				<port id="1" precision="FP32">
					<dim>144</dim>
					<dim>24</dim>
					<dim>1</dim>
					<dim>1</dim>
				</port>
			</input>
			<output>
				<port id="2" precision="FP32">
					<dim>-1</dim>
					<dim>144</dim>
					<dim>184</dim>
					<dim>248</dim>
				</port>
			</output>
		</layer>
		<layer id="42" name="Reshape_404" type="Const" version="opset1">
			<data element_type="f32" shape="1, 144, 1, 1" offset="44752" size="576" />
			<output>
				<port id="0" precision="FP32">
					<dim>1</dim>
					<dim>144</dim>
					<dim>1</dim>
					<dim>1</dim>
				</port>
			</output>
		</layer>
		<layer id="43" name="/backbone/stage2/unit2/conv1/conv/Conv" type="Add" version="opset1">
			<data auto_broadcast="numpy" />
			<input>
				<port id="0" precision="FP32">
					<dim>-1</dim>
					<dim>144</dim>
					<dim>184</dim>
					<dim>248</dim>
				</port>
				<port id="1" precision="FP32">
					<dim>1</dim>
					<dim>144</dim>
					<dim>1</dim>
					<dim>1</dim>
				</port>
			</input>
			<output>
				<port id="2" precision="FP32" names="/backbone/stage2/unit2/conv1/conv/Conv_output_0">
					<dim>-1</dim>
					<dim>144</dim>
					<dim>184</dim>
					<dim>248</dim>
				</port>
			</output>
		</layer>
		<layer id="44" name="/backbone/stage2/unit2/conv1/activ/Clip" type="Clamp" version="opset1">
			<data min="0" max="6" />
			<input>
				<port id="0" precision="FP32">
					<dim>-1</dim>
					<dim>144</dim>
					<dim>184</dim>
					<dim>248</dim>
				</port>
			</input>
			<output>
				<port id="1" precision="FP32" names="/backbone/stage2/unit2/conv1/activ/Clip_output_0">
					<dim>-1</dim>
					<dim>144</dim>
					<dim>184</dim>
					<dim>248</dim>
				</port>
			</output>
		</layer>
		<layer id="45" name="Reshape_419" type="Const" version="opset1">
			<data element_type="f32" shape="144, 1, 1, 3, 3" offset="45328" size="5184" />
			<output>
				<port id="0" precision="FP32">
					<dim>144</dim>
					<dim>1</dim>
					<dim>1</dim>
					<dim>3</dim>
					<dim>3</dim>
				</port>
			</output>
		</layer>
		<layer id="46" name="/backbone/stage2/unit2/conv2/conv/Conv/WithoutBiases" type="GroupConvolution" version="opset1">
			<data strides="1, 1" pads_begin="1, 1" pads_end="1, 1" dilations="1, 1" auto_pad="explicit" />
			<input>
				<port id="0" precision="FP32">
					<dim>-1</dim>
					<dim>144</dim>
					<dim>184</dim>
					<dim>248</dim>
				</port>
				<port id="1" precision="FP32">
					<dim>144</dim>
					<dim>1</dim>
					<dim>1</dim>
					<dim>3</dim>
					<dim>3</dim>
				</port>
			</input>
			<output>
				<port id="2" precision="FP32">
					<dim>-1</dim>
					<dim>144</dim>
					<dim>184</dim>
					<dim>248</dim>
				</port>
			</output>
		</layer>
		<layer id="47" name="Reshape_471" type="Const" version="opset1">
			<data element_type="f32" shape="1, 144, 1, 1" offset="50512" size="576" />
			<output>
				<port id="0" precision="FP32">
					<dim>1</dim>
					<dim>144</dim>
					<dim>1</dim>
					<dim>1</dim>
				</port>
			</output>
		</layer>
		<layer id="48" name="/backbone/stage2/unit2/conv2/conv/Conv" type="Add" version="opset1">
			<data auto_broadcast="numpy" />
			<input>
				<port id="0" precision="FP32">
					<dim>-1</dim>
					<dim>144</dim>
					<dim>184</dim>
					<dim>248</dim>
				</port>
				<port id="1" precision="FP32">
					<dim>1</dim>
					<dim>144</dim>
					<dim>1</dim>
					<dim>1</dim>
				</port>
			</input>
			<output>
				<port id="2" precision="FP32" names="/backbone/stage2/unit2/conv2/conv/Conv_output_0">
					<dim>-1</dim>
					<dim>144</dim>
					<dim>184</dim>
					<dim>248</dim>
				</port>
			</output>
		</layer>
		<layer id="49" name="/backbone/stage2/unit2/conv2/activ/Clip" type="Clamp" version="opset1">
			<data min="0" max="6" />
			<input>
				<port id="0" precision="FP32">
					<dim>-1</dim>
					<dim>144</dim>
					<dim>184</dim>
					<dim>248</dim>
				</port>
			</input>
			<output>
				<port id="1" precision="FP32" names="/backbone/stage2/unit2/conv2/activ/Clip_output_0">
					<dim>-1</dim>
					<dim>144</dim>
					<dim>184</dim>
					<dim>248</dim>
				</port>
			</output>
		</layer>
		<layer id="50" name="onnx::Conv_2317" type="Const" version="opset1">
			<data element_type="f32" shape="24, 144, 1, 1" offset="51088" size="13824" />
			<output>
				<port id="0" precision="FP32" names="onnx::Conv_2317">
					<dim>24</dim>
					<dim>144</dim>
					<dim>1</dim>
					<dim>1</dim>
				</port>
			</output>
		</layer>
		<layer id="51" name="/backbone/stage2/unit2/conv3/conv/Conv/WithoutBiases" type="Convolution" version="opset1">
			<data strides="1, 1" dilations="1, 1" pads_begin="0, 0" pads_end="0, 0" auto_pad="explicit" />
			<input>
				<port id="0" precision="FP32">
					<dim>-1</dim>
					<dim>144</dim>
					<dim>184</dim>
					<dim>248</dim>
				</port>
				<port id="1" precision="FP32">
					<dim>24</dim>
					<dim>144</dim>
					<dim>1</dim>
					<dim>1</dim>
				</port>
			</input>
			<output>
				<port id="2" precision="FP32">
					<dim>-1</dim>
					<dim>24</dim>
					<dim>184</dim>
					<dim>248</dim>
				</port>
			</output>
		</layer>
		<layer id="52" name="Reshape_491" type="Const" version="opset1">
			<data element_type="f32" shape="1, 24, 1, 1" offset="64912" size="96" />
			<output>
				<port id="0" precision="FP32">
					<dim>1</dim>
					<dim>24</dim>
					<dim>1</dim>
					<dim>1</dim>
				</port>
			</output>
		</layer>
		<layer id="53" name="/backbone/stage2/unit2/conv3/conv/Conv" type="Add" version="opset1">
			<data auto_broadcast="numpy" />
			<input>
				<port id="0" precision="FP32">
					<dim>-1</dim>
					<dim>24</dim>
					<dim>184</dim>
					<dim>248</dim>
				</port>
				<port id="1" precision="FP32">
					<dim>1</dim>
					<dim>24</dim>
					<dim>1</dim>
					<dim>1</dim>
				</port>
			</input>
			<output>
				<port id="2" precision="FP32" names="/backbone/stage2/unit2/conv3/conv/Conv_output_0">
					<dim>-1</dim>
					<dim>24</dim>
					<dim>184</dim>
					<dim>248</dim>
				</port>
			</output>
		</layer>
		<layer id="54" name="/backbone/stage2/unit2/Add" type="Add" version="opset1">
			<data auto_broadcast="numpy" />
			<input>
				<port id="0" precision="FP32">
					<dim>-1</dim>
					<dim>24</dim>
					<dim>184</dim>
					<dim>248</dim>
				</port>
				<port id="1" precision="FP32">
					<dim>-1</dim>
					<dim>24</dim>
					<dim>184</dim>
					<dim>248</dim>
				</port>
			</input>
			<output>
				<port id="2" precision="FP32" names="/backbone/stage2/unit2/Add_output_0">
					<dim>-1</dim>
					<dim>24</dim>
					<dim>184</dim>
					<dim>248</dim>
				</port>
			</output>
		</layer>
		<layer id="55" name="onnx::Conv_2320" type="Const" version="opset1">
			<data element_type="f32" shape="144, 24, 1, 1" offset="65008" size="13824" />
			<output>
				<port id="0" precision="FP32" names="onnx::Conv_2320">
					<dim>144</dim>
					<dim>24</dim>
					<dim>1</dim>
					<dim>1</dim>
				</port>
			</output>
		</layer>
		<layer id="56" name="/backbone/stage3/unit1/conv1/conv/Conv/WithoutBiases" type="Convolution" version="opset1">
			<data strides="1, 1" dilations="1, 1" pads_begin="0, 0" pads_end="0, 0" auto_pad="explicit" />
			<input>
				<port id="0" precision="FP32">
					<dim>-1</dim>
					<dim>24</dim>
					<dim>184</dim>
					<dim>248</dim>
				</port>
				<port id="1" precision="FP32">
					<dim>144</dim>
					<dim>24</dim>
					<dim>1</dim>
					<dim>1</dim>
				</port>
			</input>
			<output>
				<port id="2" precision="FP32">
					<dim>-1</dim>
					<dim>144</dim>
					<dim>184</dim>
					<dim>248</dim>
				</port>
			</output>
		</layer>
		<layer id="57" name="Reshape_508" type="Const" version="opset1">
			<data element_type="f32" shape="1, 144, 1, 1" offset="78832" size="576" />
			<output>
				<port id="0" precision="FP32">
					<dim>1</dim>
					<dim>144</dim>
					<dim>1</dim>
					<dim>1</dim>
				</port>
			</output>
		</layer>
		<layer id="58" name="/backbone/stage3/unit1/conv1/conv/Conv" type="Add" version="opset1">
			<data auto_broadcast="numpy" />
			<input>
				<port id="0" precision="FP32">
					<dim>-1</dim>
					<dim>144</dim>
					<dim>184</dim>
					<dim>248</dim>
				</port>
				<port id="1" precision="FP32">
					<dim>1</dim>
					<dim>144</dim>
					<dim>1</dim>
					<dim>1</dim>
				</port>
			</input>
			<output>
				<port id="2" precision="FP32" names="/backbone/stage3/unit1/conv1/conv/Conv_output_0">
					<dim>-1</dim>
					<dim>144</dim>
					<dim>184</dim>
					<dim>248</dim>
				</port>
			</output>
		</layer>
		<layer id="59" name="/backbone/stage3/unit1/conv1/activ/Clip" type="Clamp" version="opset1">
			<data min="0" max="6" />
			<input>
				<port id="0" precision="FP32">
					<dim>-1</dim>
					<dim>144</dim>
					<dim>184</dim>
					<dim>248</dim>
				</port>
			</input>
			<output>
				<port id="1" precision="FP32" names="/backbone/stage3/unit1/conv1/activ/Clip_output_0">
					<dim>-1</dim>
					<dim>144</dim>
					<dim>184</dim>
					<dim>248</dim>
				</port>
			</output>
		</layer>
		<layer id="60" name="Reshape_523" type="Const" version="opset1">
			<data element_type="f32" shape="144, 1, 1, 3, 3" offset="79408" size="5184" />
			<output>
				<port id="0" precision="FP32">
					<dim>144</dim>
					<dim>1</dim>
					<dim>1</dim>
					<dim>3</dim>
					<dim>3</dim>
				</port>
			</output>
		</layer>
		<layer id="61" name="/backbone/stage3/unit1/conv2/conv/Conv/WithoutBiases" type="GroupConvolution" version="opset1">
			<data strides="2, 2" pads_begin="1, 1" pads_end="1, 1" dilations="1, 1" auto_pad="explicit" />
			<input>
				<port id="0" precision="FP32">
					<dim>-1</dim>
					<dim>144</dim>
					<dim>184</dim>
					<dim>248</dim>
				</port>
				<port id="1" precision="FP32">
					<dim>144</dim>
					<dim>1</dim>
					<dim>1</dim>
					<dim>3</dim>
					<dim>3</dim>
				</port>
			</input>
			<output>
				<port id="2" precision="FP32">
					<dim>-1</dim>
					<dim>144</dim>
					<dim>92</dim>
					<dim>124</dim>
				</port>
			</output>
		</layer>
		<layer id="62" name="Reshape_575" type="Const" version="opset1">
			<data element_type="f32" shape="1, 144, 1, 1" offset="84592" size="576" />
			<output>
				<port id="0" precision="FP32">
					<dim>1</dim>
					<dim>144</dim>
					<dim>1</dim>
					<dim>1</dim>
				</port>
			</output>
		</layer>
		<layer id="63" name="/backbone/stage3/unit1/conv2/conv/Conv" type="Add" version="opset1">
			<data auto_broadcast="numpy" />
			<input>
				<port id="0" precision="FP32">
					<dim>-1</dim>
					<dim>144</dim>
					<dim>92</dim>
					<dim>124</dim>
				</port>
				<port id="1" precision="FP32">
					<dim>1</dim>
					<dim>144</dim>
					<dim>1</dim>
					<dim>1</dim>
				</port>
			</input>
			<output>
				<port id="2" precision="FP32" names="/backbone/stage3/unit1/conv2/conv/Conv_output_0">
					<dim>-1</dim>
					<dim>144</dim>
					<dim>92</dim>
					<dim>124</dim>
				</port>
			</output>
		</layer>
		<layer id="64" name="/backbone/stage3/unit1/conv2/activ/Clip" type="Clamp" version="opset1">
			<data min="0" max="6" />
			<input>
				<port id="0" precision="FP32">
					<dim>-1</dim>
					<dim>144</dim>
					<dim>92</dim>
					<dim>124</dim>
				</port>
			</input>
			<output>
				<port id="1" precision="FP32" names="/backbone/stage3/unit1/conv2/activ/Clip_output_0">
					<dim>-1</dim>
					<dim>144</dim>
					<dim>92</dim>
					<dim>124</dim>
				</port>
			</output>
		</layer>
		<layer id="65" name="onnx::Conv_2326" type="Const" version="opset1">
			<data element_type="f32" shape="32, 144, 1, 1" offset="85168" size="18432" />
			<output>
				<port id="0" precision="FP32" names="onnx::Conv_2326">
					<dim>32</dim>
					<dim>144</dim>
					<dim>1</dim>
					<dim>1</dim>
				</port>
			</output>
		</layer>
		<layer id="66" name="/backbone/stage3/unit1/conv3/conv/Conv/WithoutBiases" type="Convolution" version="opset1">
			<data strides="1, 1" dilations="1, 1" pads_begin="0, 0" pads_end="0, 0" auto_pad="explicit" />
			<input>
				<port id="0" precision="FP32">
					<dim>-1</dim>
					<dim>144</dim>
					<dim>92</dim>
					<dim>124</dim>
				</port>
				<port id="1" precision="FP32">
					<dim>32</dim>
					<dim>144</dim>
					<dim>1</dim>
					<dim>1</dim>
				</port>
			</input>
			<output>
				<port id="2" precision="FP32">
					<dim>-1</dim>
					<dim>32</dim>
					<dim>92</dim>
					<dim>124</dim>
				</port>
			</output>
		</layer>
		<layer id="67" name="Reshape_595" type="Const" version="opset1">
			<data element_type="f32" shape="1, 32, 1, 1" offset="103600" size="128" />
			<output>
				<port id="0" precision="FP32">
					<dim>1</dim>
					<dim>32</dim>
					<dim>1</dim>
					<dim>1</dim>
				</port>
			</output>
		</layer>
		<layer id="68" name="/backbone/stage3/unit1/conv3/conv/Conv" type="Add" version="opset1">
			<data auto_broadcast="numpy" />
			<input>
				<port id="0" precision="FP32">
					<dim>-1</dim>
					<dim>32</dim>
					<dim>92</dim>
					<dim>124</dim>
				</port>
				<port id="1" precision="FP32">
					<dim>1</dim>
					<dim>32</dim>
					<dim>1</dim>
					<dim>1</dim>
				</port>
			</input>
			<output>
				<port id="2" precision="FP32" names="/backbone/stage3/unit1/conv3/conv/Conv_output_0">
					<dim>-1</dim>
					<dim>32</dim>
					<dim>92</dim>
					<dim>124</dim>
				</port>
			</output>
		</layer>
		<layer id="69" name="onnx::Conv_2329" type="Const" version="opset1">
			<data element_type="f32" shape="192, 32, 1, 1" offset="103728" size="24576" />
			<output>
				<port id="0" precision="FP32" names="onnx::Conv_2329">
					<dim>192</dim>
					<dim>32</dim>
					<dim>1</dim>
					<dim>1</dim>
				</port>
			</output>
		</layer>
		<layer id="70" name="/backbone/stage3/unit2/conv1/conv/Conv/WithoutBiases" type="Convolution" version="opset1">
			<data strides="1, 1" dilations="1, 1" pads_begin="0, 0" pads_end="0, 0" auto_pad="explicit" />
			<input>
				<port id="0" precision="FP32">
					<dim>-1</dim>
					<dim>32</dim>
					<dim>92</dim>
					<dim>124</dim>
				</port>
				<port id="1" precision="FP32">
					<dim>192</dim>
					<dim>32</dim>
					<dim>1</dim>
					<dim>1</dim>
				</port>
			</input>
			<output>
				<port id="2" precision="FP32">
					<dim>-1</dim>
					<dim>192</dim>
					<dim>92</dim>
					<dim>124</dim>
				</port>
			</output>
		</layer>
		<layer id="71" name="Reshape_611" type="Const" version="opset1">
			<data element_type="f32" shape="1, 192, 1, 1" offset="128304" size="768" />
			<output>
				<port id="0" precision="FP32">
					<dim>1</dim>
					<dim>192</dim>
					<dim>1</dim>
					<dim>1</dim>
				</port>
			</output>
		</layer>
		<layer id="72" name="/backbone/stage3/unit2/conv1/conv/Conv" type="Add" version="opset1">
			<data auto_broadcast="numpy" />
			<input>
				<port id="0" precision="FP32">
					<dim>-1</dim>
					<dim>192</dim>
					<dim>92</dim>
					<dim>124</dim>
				</port>
				<port id="1" precision="FP32">
					<dim>1</dim>
					<dim>192</dim>
					<dim>1</dim>
					<dim>1</dim>
				</port>
			</input>
			<output>
				<port id="2" precision="FP32" names="/backbone/stage3/unit2/conv1/conv/Conv_output_0">
					<dim>-1</dim>
					<dim>192</dim>
					<dim>92</dim>
					<dim>124</dim>
				</port>
			</output>
		</layer>
		<layer id="73" name="/backbone/stage3/unit2/conv1/activ/Clip" type="Clamp" version="opset1">
			<data min="0" max="6" />
			<input>
				<port id="0" precision="FP32">
					<dim>-1</dim>
					<dim>192</dim>
					<dim>92</dim>
					<dim>124</dim>
				</port>
			</input>
			<output>
				<port id="1" precision="FP32" names="/backbone/stage3/unit2/conv1/activ/Clip_output_0">
					<dim>-1</dim>
					<dim>192</dim>
					<dim>92</dim>
					<dim>124</dim>
				</port>
			</output>
		</layer>
		<layer id="74" name="Reshape_626" type="Const" version="opset1">
			<data element_type="f32" shape="192, 1, 1, 3, 3" offset="129072" size="6912" />
			<output>
				<port id="0" precision="FP32">
					<dim>192</dim>
					<dim>1</dim>
					<dim>1</dim>
					<dim>3</dim>
					<dim>3</dim>
				</port>
			</output>
		</layer>
		<layer id="75" name="/backbone/stage3/unit2/conv2/conv/Conv/WithoutBiases" type="GroupConvolution" version="opset1">
			<data strides="1, 1" pads_begin="1, 1" pads_end="1, 1" dilations="1, 1" auto_pad="explicit" />
			<input>
				<port id="0" precision="FP32">
					<dim>-1</dim>
					<dim>192</dim>
					<dim>92</dim>
					<dim>124</dim>
				</port>
				<port id="1" precision="FP32">
					<dim>192</dim>
					<dim>1</dim>
					<dim>1</dim>
					<dim>3</dim>
					<dim>3</dim>
				</port>
			</input>
			<output>
				<port id="2" precision="FP32">
					<dim>-1</dim>
					<dim>192</dim>
					<dim>92</dim>
					<dim>124</dim>
				</port>
			</output>
		</layer>
		<layer id="76" name="Reshape_678" type="Const" version="opset1">
			<data element_type="f32" shape="1, 192, 1, 1" offset="135984" size="768" />
			<output>
				<port id="0" precision="FP32">
					<dim>1</dim>
					<dim>192</dim>
					<dim>1</dim>
					<dim>1</dim>
				</port>
			</output>
		</layer>
		<layer id="77" name="/backbone/stage3/unit2/conv2/conv/Conv" type="Add" version="opset1">
			<data auto_broadcast="numpy" />
			<input>
				<port id="0" precision="FP32">
					<dim>-1</dim>
					<dim>192</dim>
					<dim>92</dim>
					<dim>124</dim>
				</port>
				<port id="1" precision="FP32">
					<dim>1</dim>
					<dim>192</dim>
					<dim>1</dim>
					<dim>1</dim>
				</port>
			</input>
			<output>
				<port id="2" precision="FP32" names="/backbone/stage3/unit2/conv2/conv/Conv_output_0">
					<dim>-1</dim>
					<dim>192</dim>
					<dim>92</dim>
					<dim>124</dim>
				</port>
			</output>
		</layer>
		<layer id="78" name="/backbone/stage3/unit2/conv2/activ/Clip" type="Clamp" version="opset1">
			<data min="0" max="6" />
			<input>
				<port id="0" precision="FP32">
					<dim>-1</dim>
					<dim>192</dim>
					<dim>92</dim>
					<dim>124</dim>
				</port>
			</input>
			<output>
				<port id="1" precision="FP32" names="/backbone/stage3/unit2/conv2/activ/Clip_output_0">
					<dim>-1</dim>
					<dim>192</dim>
					<dim>92</dim>
					<dim>124</dim>
				</port>
			</output>
		</layer>
		<layer id="79" name="onnx::Conv_2335" type="Const" version="opset1">
			<data element_type="f32" shape="32, 192, 1, 1" offset="136752" size="24576" />
			<output>
				<port id="0" precision="FP32" names="onnx::Conv_2335">
					<dim>32</dim>
					<dim>192</dim>
					<dim>1</dim>
					<dim>1</dim>
				</port>
			</output>
		</layer>
		<layer id="80" name="/backbone/stage3/unit2/conv3/conv/Conv/WithoutBiases" type="Convolution" version="opset1">
			<data strides="1, 1" dilations="1, 1" pads_begin="0, 0" pads_end="0, 0" auto_pad="explicit" />
			<input>
				<port id="0" precision="FP32">
					<dim>-1</dim>
					<dim>192</dim>
					<dim>92</dim>
					<dim>124</dim>
				</port>
				<port id="1" precision="FP32">
					<dim>32</dim>
					<dim>192</dim>
					<dim>1</dim>
					<dim>1</dim>
				</port>
			</input>
			<output>
				<port id="2" precision="FP32">
					<dim>-1</dim>
					<dim>32</dim>
					<dim>92</dim>
					<dim>124</dim>
				</port>
			</output>
		</layer>
		<layer id="81" name="Reshape_698" type="Const" version="opset1">
			<data element_type="f32" shape="1, 32, 1, 1" offset="161328" size="128" />
			<output>
				<port id="0" precision="FP32">
					<dim>1</dim>
					<dim>32</dim>
					<dim>1</dim>
					<dim>1</dim>
				</port>
			</output>
		</layer>
		<layer id="82" name="/backbone/stage3/unit2/conv3/conv/Conv" type="Add" version="opset1">
			<data auto_broadcast="numpy" />
			<input>
				<port id="0" precision="FP32">
					<dim>-1</dim>
					<dim>32</dim>
					<dim>92</dim>
					<dim>124</dim>
				</port>
				<port id="1" precision="FP32">
					<dim>1</dim>
					<dim>32</dim>
					<dim>1</dim>
					<dim>1</dim>
				</port>
			</input>
			<output>
				<port id="2" precision="FP32" names="/backbone/stage3/unit2/conv3/conv/Conv_output_0">
					<dim>-1</dim>
					<dim>32</dim>
					<dim>92</dim>
					<dim>124</dim>
				</port>
			</output>
		</layer>
		<layer id="83" name="/backbone/stage3/unit2/Add" type="Add" version="opset1">
			<data auto_broadcast="numpy" />
			<input>
				<port id="0" precision="FP32">
					<dim>-1</dim>
					<dim>32</dim>
					<dim>92</dim>
					<dim>124</dim>
				</port>
				<port id="1" precision="FP32">
					<dim>-1</dim>
					<dim>32</dim>
					<dim>92</dim>
					<dim>124</dim>
				</port>
			</input>
			<output>
				<port id="2" precision="FP32" names="/backbone/stage3/unit2/Add_output_0">
					<dim>-1</dim>
					<dim>32</dim>
					<dim>92</dim>
					<dim>124</dim>
				</port>
			</output>
		</layer>
		<layer id="84" name="onnx::Conv_2338" type="Const" version="opset1">
			<data element_type="f32" shape="192, 32, 1, 1" offset="161456" size="24576" />
			<output>
				<port id="0" precision="FP32" names="onnx::Conv_2338">
					<dim>192</dim>
					<dim>32</dim>
					<dim>1</dim>
					<dim>1</dim>
				</port>
			</output>
		</layer>
		<layer id="85" name="/backbone/stage3/unit3/conv1/conv/Conv/WithoutBiases" type="Convolution" version="opset1">
			<data strides="1, 1" dilations="1, 1" pads_begin="0, 0" pads_end="0, 0" auto_pad="explicit" />
			<input>
				<port id="0" precision="FP32">
					<dim>-1</dim>
					<dim>32</dim>
					<dim>92</dim>
					<dim>124</dim>
				</port>
				<port id="1" precision="FP32">
					<dim>192</dim>
					<dim>32</dim>
					<dim>1</dim>
					<dim>1</dim>
				</port>
			</input>
			<output>
				<port id="2" precision="FP32">
					<dim>-1</dim>
					<dim>192</dim>
					<dim>92</dim>
					<dim>124</dim>
				</port>
			</output>
		</layer>
		<layer id="86" name="Reshape_715" type="Const" version="opset1">
			<data element_type="f32" shape="1, 192, 1, 1" offset="186032" size="768" />
			<output>
				<port id="0" precision="FP32">
					<dim>1</dim>
					<dim>192</dim>
					<dim>1</dim>
					<dim>1</dim>
				</port>
			</output>
		</layer>
		<layer id="87" name="/backbone/stage3/unit3/conv1/conv/Conv" type="Add" version="opset1">
			<data auto_broadcast="numpy" />
			<input>
				<port id="0" precision="FP32">
					<dim>-1</dim>
					<dim>192</dim>
					<dim>92</dim>
					<dim>124</dim>
				</port>
				<port id="1" precision="FP32">
					<dim>1</dim>
					<dim>192</dim>
					<dim>1</dim>
					<dim>1</dim>
				</port>
			</input>
			<output>
				<port id="2" precision="FP32" names="/backbone/stage3/unit3/conv1/conv/Conv_output_0">
					<dim>-1</dim>
					<dim>192</dim>
					<dim>92</dim>
					<dim>124</dim>
				</port>
			</output>
		</layer>
		<layer id="88" name="/backbone/stage3/unit3/conv1/activ/Clip" type="Clamp" version="opset1">
			<data min="0" max="6" />
			<input>
				<port id="0" precision="FP32">
					<dim>-1</dim>
					<dim>192</dim>
					<dim>92</dim>
					<dim>124</dim>
				</port>
			</input>
			<output>
				<port id="1" precision="FP32" names="/backbone/stage3/unit3/conv1/activ/Clip_output_0">
					<dim>-1</dim>
					<dim>192</dim>
					<dim>92</dim>
					<dim>124</dim>
				</port>
			</output>
		</layer>
		<layer id="89" name="Reshape_730" type="Const" version="opset1">
			<data element_type="f32" shape="192, 1, 1, 3, 3" offset="186800" size="6912" />
			<output>
				<port id="0" precision="FP32">
					<dim>192</dim>
					<dim>1</dim>
					<dim>1</dim>
					<dim>3</dim>
					<dim>3</dim>
				</port>
			</output>
		</layer>
		<layer id="90" name="/backbone/stage3/unit3/conv2/conv/Conv/WithoutBiases" type="GroupConvolution" version="opset1">
			<data strides="1, 1" pads_begin="1, 1" pads_end="1, 1" dilations="1, 1" auto_pad="explicit" />
			<input>
				<port id="0" precision="FP32">
					<dim>-1</dim>
					<dim>192</dim>
					<dim>92</dim>
					<dim>124</dim>
				</port>
				<port id="1" precision="FP32">
					<dim>192</dim>
					<dim>1</dim>
					<dim>1</dim>
					<dim>3</dim>
					<dim>3</dim>
				</port>
			</input>
			<output>
				<port id="2" precision="FP32">
					<dim>-1</dim>
					<dim>192</dim>
					<dim>92</dim>
					<dim>124</dim>
				</port>
			</output>
		</layer>
		<layer id="91" name="Reshape_782" type="Const" version="opset1">
			<data element_type="f32" shape="1, 192, 1, 1" offset="193712" size="768" />
			<output>
				<port id="0" precision="FP32">
					<dim>1</dim>
					<dim>192</dim>
					<dim>1</dim>
					<dim>1</dim>
				</port>
			</output>
		</layer>
		<layer id="92" name="/backbone/stage3/unit3/conv2/conv/Conv" type="Add" version="opset1">
			<data auto_broadcast="numpy" />
			<input>
				<port id="0" precision="FP32">
					<dim>-1</dim>
					<dim>192</dim>
					<dim>92</dim>
					<dim>124</dim>
				</port>
				<port id="1" precision="FP32">
					<dim>1</dim>
					<dim>192</dim>
					<dim>1</dim>
					<dim>1</dim>
				</port>
			</input>
			<output>
				<port id="2" precision="FP32" names="/backbone/stage3/unit3/conv2/conv/Conv_output_0">
					<dim>-1</dim>
					<dim>192</dim>
					<dim>92</dim>
					<dim>124</dim>
				</port>
			</output>
		</layer>
		<layer id="93" name="/backbone/stage3/unit3/conv2/activ/Clip" type="Clamp" version="opset1">
			<data min="0" max="6" />
			<input>
				<port id="0" precision="FP32">
					<dim>-1</dim>
					<dim>192</dim>
					<dim>92</dim>
					<dim>124</dim>
				</port>
			</input>
			<output>
				<port id="1" precision="FP32" names="/backbone/stage3/unit3/conv2/activ/Clip_output_0">
					<dim>-1</dim>
					<dim>192</dim>
					<dim>92</dim>
					<dim>124</dim>
				</port>
			</output>
		</layer>
		<layer id="94" name="onnx::Conv_2344" type="Const" version="opset1">
			<data element_type="f32" shape="32, 192, 1, 1" offset="194480" size="24576" />
			<output>
				<port id="0" precision="FP32" names="onnx::Conv_2344">
					<dim>32</dim>
					<dim>192</dim>
					<dim>1</dim>
					<dim>1</dim>
				</port>
			</output>
		</layer>
		<layer id="95" name="/backbone/stage3/unit3/conv3/conv/Conv/WithoutBiases" type="Convolution" version="opset1">
			<data strides="1, 1" dilations="1, 1" pads_begin="0, 0" pads_end="0, 0" auto_pad="explicit" />
			<input>
				<port id="0" precision="FP32">
					<dim>-1</dim>
					<dim>192</dim>
					<dim>92</dim>
					<dim>124</dim>
				</port>
				<port id="1" precision="FP32">
					<dim>32</dim>
					<dim>192</dim>
					<dim>1</dim>
					<dim>1</dim>
				</port>
			</input>
			<output>
				<port id="2" precision="FP32">
					<dim>-1</dim>
					<dim>32</dim>
					<dim>92</dim>
					<dim>124</dim>
				</port>
			</output>
		</layer>
		<layer id="96" name="Reshape_802" type="Const" version="opset1">
			<data element_type="f32" shape="1, 32, 1, 1" offset="219056" size="128" />
			<output>
				<port id="0" precision="FP32">
					<dim>1</dim>
					<dim>32</dim>
					<dim>1</dim>
					<dim>1</dim>
				</port>
			</output>
		</layer>
		<layer id="97" name="/backbone/stage3/unit3/conv3/conv/Conv" type="Add" version="opset1">
			<data auto_broadcast="numpy" />
			<input>
				<port id="0" precision="FP32">
					<dim>-1</dim>
					<dim>32</dim>
					<dim>92</dim>
					<dim>124</dim>
				</port>
				<port id="1" precision="FP32">
					<dim>1</dim>
					<dim>32</dim>
					<dim>1</dim>
					<dim>1</dim>
				</port>
			</input>
			<output>
				<port id="2" precision="FP32" names="/backbone/stage3/unit3/conv3/conv/Conv_output_0">
					<dim>-1</dim>
					<dim>32</dim>
					<dim>92</dim>
					<dim>124</dim>
				</port>
			</output>
		</layer>
		<layer id="98" name="/backbone/stage3/unit3/Add" type="Add" version="opset1">
			<data auto_broadcast="numpy" />
			<input>
				<port id="0" precision="FP32">
					<dim>-1</dim>
					<dim>32</dim>
					<dim>92</dim>
					<dim>124</dim>
				</port>
				<port id="1" precision="FP32">
					<dim>-1</dim>
					<dim>32</dim>
					<dim>92</dim>
					<dim>124</dim>
				</port>
			</input>
			<output>
				<port id="2" precision="FP32" names="/backbone/stage3/unit3/Add_output_0">
					<dim>-1</dim>
					<dim>32</dim>
					<dim>92</dim>
					<dim>124</dim>
				</port>
			</output>
		</layer>
		<layer id="99" name="neck.lateral_convs.0.conv.weight" type="Const" version="opset1">
			<data element_type="f32" shape="64, 32, 1, 1" offset="219184" size="8192" />
			<output>
				<port id="0" precision="FP32" names="neck.lateral_convs.0.conv.weight">
					<dim>64</dim>
					<dim>32</dim>
					<dim>1</dim>
					<dim>1</dim>
				</port>
			</output>
		</layer>
		<layer id="100" name="/neck/lateral_convs.0/conv/Conv/WithoutBiases" type="Convolution" version="opset1">
			<data strides="1, 1" dilations="1, 1" pads_begin="0, 0" pads_end="0, 0" auto_pad="explicit" />
			<input>
				<port id="0" precision="FP32">
					<dim>-1</dim>
					<dim>32</dim>
					<dim>92</dim>
					<dim>124</dim>
				</port>
				<port id="1" precision="FP32">
					<dim>64</dim>
					<dim>32</dim>
					<dim>1</dim>
					<dim>1</dim>
				</port>
			</input>
			<output>
				<port id="2" precision="FP32">
					<dim>-1</dim>
					<dim>64</dim>
					<dim>92</dim>
					<dim>124</dim>
				</port>
			</output>
		</layer>
		<layer id="101" name="Reshape_1959" type="Const" version="opset1">
			<data element_type="f32" shape="1, 64, 1, 1" offset="227376" size="256" />
			<output>
				<port id="0" precision="FP32">
					<dim>1</dim>
					<dim>64</dim>
					<dim>1</dim>
					<dim>1</dim>
				</port>
			</output>
		</layer>
		<layer id="102" name="/neck/lateral_convs.0/conv/Conv" type="Add" version="opset1">
			<data auto_broadcast="numpy" />
			<input>
				<port id="0" precision="FP32">
					<dim>-1</dim>
					<dim>64</dim>
					<dim>92</dim>
					<dim>124</dim>
				</port>
				<port id="1" precision="FP32">
					<dim>1</dim>
					<dim>64</dim>
					<dim>1</dim>
					<dim>1</dim>
				</port>
			</input>
			<output>
				<port id="2" precision="FP32" names="/neck/lateral_convs.0/conv/Conv_output_0">
					<dim>-1</dim>
					<dim>64</dim>
					<dim>92</dim>
					<dim>124</dim>
				</port>
			</output>
		</layer>
		<layer id="103" name="onnx::Conv_2347" type="Const" version="opset1">
			<data element_type="f32" shape="192, 32, 1, 1" offset="227632" size="24576" />
			<output>
				<port id="0" precision="FP32" names="onnx::Conv_2347">
					<dim>192</dim>
					<dim>32</dim>
					<dim>1</dim>
					<dim>1</dim>
				</port>
			</output>
		</layer>
		<layer id="104" name="/backbone/stage4/unit1/conv1/conv/Conv/WithoutBiases" type="Convolution" version="opset1">
			<data strides="1, 1" dilations="1, 1" pads_begin="0, 0" pads_end="0, 0" auto_pad="explicit" />
			<input>
				<port id="0" precision="FP32">
					<dim>-1</dim>
					<dim>32</dim>
					<dim>92</dim>
					<dim>124</dim>
				</port>
				<port id="1" precision="FP32">
					<dim>192</dim>
					<dim>32</dim>
					<dim>1</dim>
					<dim>1</dim>
				</port>
			</input>
			<output>
				<port id="2" precision="FP32">
					<dim>-1</dim>
					<dim>192</dim>
					<dim>92</dim>
					<dim>124</dim>
				</port>
			</output>
		</layer>
		<layer id="105" name="Reshape_819" type="Const" version="opset1">
			<data element_type="f32" shape="1, 192, 1, 1" offset="252208" size="768" />
			<output>
				<port id="0" precision="FP32">
					<dim>1</dim>
					<dim>192</dim>
					<dim>1</dim>
					<dim>1</dim>
				</port>
			</output>
		</layer>
		<layer id="106" name="/backbone/stage4/unit1/conv1/conv/Conv" type="Add" version="opset1">
			<data auto_broadcast="numpy" />
			<input>
				<port id="0" precision="FP32">
					<dim>-1</dim>
					<dim>192</dim>
					<dim>92</dim>
					<dim>124</dim>
				</port>
				<port id="1" precision="FP32">
					<dim>1</dim>
					<dim>192</dim>
					<dim>1</dim>
					<dim>1</dim>
				</port>
			</input>
			<output>
				<port id="2" precision="FP32" names="/backbone/stage4/unit1/conv1/conv/Conv_output_0">
					<dim>-1</dim>
					<dim>192</dim>
					<dim>92</dim>
					<dim>124</dim>
				</port>
			</output>
		</layer>
		<layer id="107" name="/backbone/stage4/unit1/conv1/activ/Clip" type="Clamp" version="opset1">
			<data min="0" max="6" />
			<input>
				<port id="0" precision="FP32">
					<dim>-1</dim>
					<dim>192</dim>
					<dim>92</dim>
					<dim>124</dim>
				</port>
			</input>
			<output>
				<port id="1" precision="FP32" names="/backbone/stage4/unit1/conv1/activ/Clip_output_0">
					<dim>-1</dim>
					<dim>192</dim>
					<dim>92</dim>
					<dim>124</dim>
				</port>
			</output>
		</layer>
		<layer id="108" name="Reshape_834" type="Const" version="opset1">
			<data element_type="f32" shape="192, 1, 1, 3, 3" offset="252976" size="6912" />
			<output>
				<port id="0" precision="FP32">
					<dim>192</dim>
					<dim>1</dim>
					<dim>1</dim>
					<dim>3</dim>
					<dim>3</dim>
				</port>
			</output>
		</layer>
		<layer id="109" name="/backbone/stage4/unit1/conv2/conv/Conv/WithoutBiases" type="GroupConvolution" version="opset1">
			<data strides="2, 2" pads_begin="1, 1" pads_end="1, 1" dilations="1, 1" auto_pad="explicit" />
			<input>
				<port id="0" precision="FP32">
					<dim>-1</dim>
					<dim>192</dim>
					<dim>92</dim>
					<dim>124</dim>
				</port>
				<port id="1" precision="FP32">
					<dim>192</dim>
					<dim>1</dim>
					<dim>1</dim>
					<dim>3</dim>
					<dim>3</dim>
				</port>
			</input>
			<output>
				<port id="2" precision="FP32">
					<dim>-1</dim>
					<dim>192</dim>
					<dim>46</dim>
					<dim>62</dim>
				</port>
			</output>
		</layer>
		<layer id="110" name="Reshape_886" type="Const" version="opset1">
			<data element_type="f32" shape="1, 192, 1, 1" offset="259888" size="768" />
			<output>
				<port id="0" precision="FP32">
					<dim>1</dim>
					<dim>192</dim>
					<dim>1</dim>
					<dim>1</dim>
				</port>
			</output>
		</layer>
		<layer id="111" name="/backbone/stage4/unit1/conv2/conv/Conv" type="Add" version="opset1">
			<data auto_broadcast="numpy" />
			<input>
				<port id="0" precision="FP32">
					<dim>-1</dim>
					<dim>192</dim>
					<dim>46</dim>
					<dim>62</dim>
				</port>
				<port id="1" precision="FP32">
					<dim>1</dim>
					<dim>192</dim>
					<dim>1</dim>
					<dim>1</dim>
				</port>
			</input>
			<output>
				<port id="2" precision="FP32" names="/backbone/stage4/unit1/conv2/conv/Conv_output_0">
					<dim>-1</dim>
					<dim>192</dim>
					<dim>46</dim>
					<dim>62</dim>
				</port>
			</output>
		</layer>
		<layer id="112" name="/backbone/stage4/unit1/conv2/activ/Clip" type="Clamp" version="opset1">
			<data min="0" max="6" />
			<input>
				<port id="0" precision="FP32">
					<dim>-1</dim>
					<dim>192</dim>
					<dim>46</dim>
					<dim>62</dim>
				</port>
			</input>
			<output>
				<port id="1" precision="FP32" names="/backbone/stage4/unit1/conv2/activ/Clip_output_0">
					<dim>-1</dim>
					<dim>192</dim>
					<dim>46</dim>
					<dim>62</dim>
				</port>
			</output>
		</layer>
		<layer id="113" name="onnx::Conv_2353" type="Const" version="opset1">
			<data element_type="f32" shape="64, 192, 1, 1" offset="260656" size="49152" />
			<output>
				<port id="0" precision="FP32" names="onnx::Conv_2353">
					<dim>64</dim>
					<dim>192</dim>
					<dim>1</dim>
					<dim>1</dim>
				</port>
			</output>
		</layer>
		<layer id="114" name="/backbone/stage4/unit1/conv3/conv/Conv/WithoutBiases" type="Convolution" version="opset1">
			<data strides="1, 1" dilations="1, 1" pads_begin="0, 0" pads_end="0, 0" auto_pad="explicit" />
			<input>
				<port id="0" precision="FP32">
					<dim>-1</dim>
					<dim>192</dim>
					<dim>46</dim>
					<dim>62</dim>
				</port>
				<port id="1" precision="FP32">
					<dim>64</dim>
					<dim>192</dim>
					<dim>1</dim>
					<dim>1</dim>
				</port>
			</input>
			<output>
				<port id="2" precision="FP32">
					<dim>-1</dim>
					<dim>64</dim>
					<dim>46</dim>
					<dim>62</dim>
				</port>
			</output>
		</layer>
		<layer id="115" name="Reshape_906" type="Const" version="opset1">
			<data element_type="f32" shape="1, 64, 1, 1" offset="309808" size="256" />
			<output>
				<port id="0" precision="FP32">
					<dim>1</dim>
					<dim>64</dim>
					<dim>1</dim>
					<dim>1</dim>
				</port>
			</output>
		</layer>
		<layer id="116" name="/backbone/stage4/unit1/conv3/conv/Conv" type="Add" version="opset1">
			<data auto_broadcast="numpy" />
			<input>
				<port id="0" precision="FP32">
					<dim>-1</dim>
					<dim>64</dim>
					<dim>46</dim>
					<dim>62</dim>
				</port>
				<port id="1" precision="FP32">
					<dim>1</dim>
					<dim>64</dim>
					<dim>1</dim>
					<dim>1</dim>
				</port>
			</input>
			<output>
				<port id="2" precision="FP32" names="/backbone/stage4/unit1/conv3/conv/Conv_output_0">
					<dim>-1</dim>
					<dim>64</dim>
					<dim>46</dim>
					<dim>62</dim>
				</port>
			</output>
		</layer>
		<layer id="117" name="onnx::Conv_2356" type="Const" version="opset1">
			<data element_type="f32" shape="384, 64, 1, 1" offset="310064" size="98304" />
			<output>
				<port id="0" precision="FP32" names="onnx::Conv_2356">
					<dim>384</dim>
					<dim>64</dim>
					<dim>1</dim>
					<dim>1</dim>
				</port>
			</output>
		</layer>
		<layer id="118" name="/backbone/stage4/unit2/conv1/conv/Conv/WithoutBiases" type="Convolution" version="opset1">
			<data strides="1, 1" dilations="1, 1" pads_begin="0, 0" pads_end="0, 0" auto_pad="explicit" />
			<input>
				<port id="0" precision="FP32">
					<dim>-1</dim>
					<dim>64</dim>
					<dim>46</dim>
					<dim>62</dim>
				</port>
				<port id="1" precision="FP32">
					<dim>384</dim>
					<dim>64</dim>
					<dim>1</dim>
					<dim>1</dim>
				</port>
			</input>
			<output>
				<port id="2" precision="FP32">
					<dim>-1</dim>
					<dim>384</dim>
					<dim>46</dim>
					<dim>62</dim>
				</port>
			</output>
		</layer>
		<layer id="119" name="Reshape_922" type="Const" version="opset1">
			<data element_type="f32" shape="1, 384, 1, 1" offset="408368" size="1536" />
			<output>
				<port id="0" precision="FP32">
					<dim>1</dim>
					<dim>384</dim>
					<dim>1</dim>
					<dim>1</dim>
				</port>
			</output>
		</layer>
		<layer id="120" name="/backbone/stage4/unit2/conv1/conv/Conv" type="Add" version="opset1">
			<data auto_broadcast="numpy" />
			<input>
				<port id="0" precision="FP32">
					<dim>-1</dim>
					<dim>384</dim>
					<dim>46</dim>
					<dim>62</dim>
				</port>
				<port id="1" precision="FP32">
					<dim>1</dim>
					<dim>384</dim>
					<dim>1</dim>
					<dim>1</dim>
				</port>
			</input>
			<output>
				<port id="2" precision="FP32" names="/backbone/stage4/unit2/conv1/conv/Conv_output_0">
					<dim>-1</dim>
					<dim>384</dim>
					<dim>46</dim>
					<dim>62</dim>
				</port>
			</output>
		</layer>
		<layer id="121" name="/backbone/stage4/unit2/conv1/activ/Clip" type="Clamp" version="opset1">
			<data min="0" max="6" />
			<input>
				<port id="0" precision="FP32">
					<dim>-1</dim>
					<dim>384</dim>
					<dim>46</dim>
					<dim>62</dim>
				</port>
			</input>
			<output>
				<port id="1" precision="FP32" names="/backbone/stage4/unit2/conv1/activ/Clip_output_0">
					<dim>-1</dim>
					<dim>384</dim>
					<dim>46</dim>
					<dim>62</dim>
				</port>
			</output>
		</layer>
		<layer id="122" name="Reshape_937" type="Const" version="opset1">
			<data element_type="f32" shape="384, 1, 1, 3, 3" offset="409904" size="13824" />
			<output>
				<port id="0" precision="FP32">
					<dim>384</dim>
					<dim>1</dim>
					<dim>1</dim>
					<dim>3</dim>
					<dim>3</dim>
				</port>
			</output>
		</layer>
		<layer id="123" name="/backbone/stage4/unit2/conv2/conv/Conv/WithoutBiases" type="GroupConvolution" version="opset1">
			<data strides="1, 1" pads_begin="1, 1" pads_end="1, 1" dilations="1, 1" auto_pad="explicit" />
			<input>
				<port id="0" precision="FP32">
					<dim>-1</dim>
					<dim>384</dim>
					<dim>46</dim>
					<dim>62</dim>
				</port>
				<port id="1" precision="FP32">
					<dim>384</dim>
					<dim>1</dim>
					<dim>1</dim>
					<dim>3</dim>
					<dim>3</dim>
				</port>
			</input>
			<output>
				<port id="2" precision="FP32">
					<dim>-1</dim>
					<dim>384</dim>
					<dim>46</dim>
					<dim>62</dim>
				</port>
			</output>
		</layer>
		<layer id="124" name="Reshape_989" type="Const" version="opset1">
			<data element_type="f32" shape="1, 384, 1, 1" offset="423728" size="1536" />
			<output>
				<port id="0" precision="FP32">
					<dim>1</dim>
					<dim>384</dim>
					<dim>1</dim>
					<dim>1</dim>
				</port>
			</output>
		</layer>
		<layer id="125" name="/backbone/stage4/unit2/conv2/conv/Conv" type="Add" version="opset1">
			<data auto_broadcast="numpy" />
			<input>
				<port id="0" precision="FP32">
					<dim>-1</dim>
					<dim>384</dim>
					<dim>46</dim>
					<dim>62</dim>
				</port>
				<port id="1" precision="FP32">
					<dim>1</dim>
					<dim>384</dim>
					<dim>1</dim>
					<dim>1</dim>
				</port>
			</input>
			<output>
				<port id="2" precision="FP32" names="/backbone/stage4/unit2/conv2/conv/Conv_output_0">
					<dim>-1</dim>
					<dim>384</dim>
					<dim>46</dim>
					<dim>62</dim>
				</port>
			</output>
		</layer>
		<layer id="126" name="/backbone/stage4/unit2/conv2/activ/Clip" type="Clamp" version="opset1">
			<data min="0" max="6" />
			<input>
				<port id="0" precision="FP32">
					<dim>-1</dim>
					<dim>384</dim>
					<dim>46</dim>
					<dim>62</dim>
				</port>
			</input>
			<output>
				<port id="1" precision="FP32" names="/backbone/stage4/unit2/conv2/activ/Clip_output_0">
					<dim>-1</dim>
					<dim>384</dim>
					<dim>46</dim>
					<dim>62</dim>
				</port>
			</output>
		</layer>
		<layer id="127" name="onnx::Conv_2362" type="Const" version="opset1">
			<data element_type="f32" shape="64, 384, 1, 1" offset="425264" size="98304" />
			<output>
				<port id="0" precision="FP32" names="onnx::Conv_2362">
					<dim>64</dim>
					<dim>384</dim>
					<dim>1</dim>
					<dim>1</dim>
				</port>
			</output>
		</layer>
		<layer id="128" name="/backbone/stage4/unit2/conv3/conv/Conv/WithoutBiases" type="Convolution" version="opset1">
			<data strides="1, 1" dilations="1, 1" pads_begin="0, 0" pads_end="0, 0" auto_pad="explicit" />
			<input>
				<port id="0" precision="FP32">
					<dim>-1</dim>
					<dim>384</dim>
					<dim>46</dim>
					<dim>62</dim>
				</port>
				<port id="1" precision="FP32">
					<dim>64</dim>
					<dim>384</dim>
					<dim>1</dim>
					<dim>1</dim>
				</port>
			</input>
			<output>
				<port id="2" precision="FP32">
					<dim>-1</dim>
					<dim>64</dim>
					<dim>46</dim>
					<dim>62</dim>
				</port>
			</output>
		</layer>
		<layer id="129" name="Reshape_1009" type="Const" version="opset1">
			<data element_type="f32" shape="1, 64, 1, 1" offset="523568" size="256" />
			<output>
				<port id="0" precision="FP32">
					<dim>1</dim>
					<dim>64</dim>
					<dim>1</dim>
					<dim>1</dim>
				</port>
			</output>
		</layer>
		<layer id="130" name="/backbone/stage4/unit2/conv3/conv/Conv" type="Add" version="opset1">
			<data auto_broadcast="numpy" />
			<input>
				<port id="0" precision="FP32">
					<dim>-1</dim>
					<dim>64</dim>
					<dim>46</dim>
					<dim>62</dim>
				</port>
				<port id="1" precision="FP32">
					<dim>1</dim>
					<dim>64</dim>
					<dim>1</dim>
					<dim>1</dim>
				</port>
			</input>
			<output>
				<port id="2" precision="FP32" names="/backbone/stage4/unit2/conv3/conv/Conv_output_0">
					<dim>-1</dim>
					<dim>64</dim>
					<dim>46</dim>
					<dim>62</dim>
				</port>
			</output>
		</layer>
		<layer id="131" name="/backbone/stage4/unit2/Add" type="Add" version="opset1">
			<data auto_broadcast="numpy" />
			<input>
				<port id="0" precision="FP32">
					<dim>-1</dim>
					<dim>64</dim>
					<dim>46</dim>
					<dim>62</dim>
				</port>
				<port id="1" precision="FP32">
					<dim>-1</dim>
					<dim>64</dim>
					<dim>46</dim>
					<dim>62</dim>
				</port>
			</input>
			<output>
				<port id="2" precision="FP32" names="/backbone/stage4/unit2/Add_output_0">
					<dim>-1</dim>
					<dim>64</dim>
					<dim>46</dim>
					<dim>62</dim>
				</port>
			</output>
		</layer>
		<layer id="132" name="onnx::Conv_2365" type="Const" version="opset1">
			<data element_type="f32" shape="384, 64, 1, 1" offset="523824" size="98304" />
			<output>
				<port id="0" precision="FP32" names="onnx::Conv_2365">
					<dim>384</dim>
					<dim>64</dim>
					<dim>1</dim>
					<dim>1</dim>
				</port>
			</output>
		</layer>
		<layer id="133" name="/backbone/stage4/unit3/conv1/conv/Conv/WithoutBiases" type="Convolution" version="opset1">
			<data strides="1, 1" dilations="1, 1" pads_begin="0, 0" pads_end="0, 0" auto_pad="explicit" />
			<input>
				<port id="0" precision="FP32">
					<dim>-1</dim>
					<dim>64</dim>
					<dim>46</dim>
					<dim>62</dim>
				</port>
				<port id="1" precision="FP32">
					<dim>384</dim>
					<dim>64</dim>
					<dim>1</dim>
					<dim>1</dim>
				</port>
			</input>
			<output>
				<port id="2" precision="FP32">
					<dim>-1</dim>
					<dim>384</dim>
					<dim>46</dim>
					<dim>62</dim>
				</port>
			</output>
		</layer>
		<layer id="134" name="Reshape_1026" type="Const" version="opset1">
			<data element_type="f32" shape="1, 384, 1, 1" offset="622128" size="1536" />
			<output>
				<port id="0" precision="FP32">
					<dim>1</dim>
					<dim>384</dim>
					<dim>1</dim>
					<dim>1</dim>
				</port>
			</output>
		</layer>
		<layer id="135" name="/backbone/stage4/unit3/conv1/conv/Conv" type="Add" version="opset1">
			<data auto_broadcast="numpy" />
			<input>
				<port id="0" precision="FP32">
					<dim>-1</dim>
					<dim>384</dim>
					<dim>46</dim>
					<dim>62</dim>
				</port>
				<port id="1" precision="FP32">
					<dim>1</dim>
					<dim>384</dim>
					<dim>1</dim>
					<dim>1</dim>
				</port>
			</input>
			<output>
				<port id="2" precision="FP32" names="/backbone/stage4/unit3/conv1/conv/Conv_output_0">
					<dim>-1</dim>
					<dim>384</dim>
					<dim>46</dim>
					<dim>62</dim>
				</port>
			</output>
		</layer>
		<layer id="136" name="/backbone/stage4/unit3/conv1/activ/Clip" type="Clamp" version="opset1">
			<data min="0" max="6" />
			<input>
				<port id="0" precision="FP32">
					<dim>-1</dim>
					<dim>384</dim>
					<dim>46</dim>
					<dim>62</dim>
				</port>
			</input>
			<output>
				<port id="1" precision="FP32" names="/backbone/stage4/unit3/conv1/activ/Clip_output_0">
					<dim>-1</dim>
					<dim>384</dim>
					<dim>46</dim>
					<dim>62</dim>
				</port>
			</output>
		</layer>
		<layer id="137" name="Reshape_1041" type="Const" version="opset1">
			<data element_type="f32" shape="384, 1, 1, 3, 3" offset="623664" size="13824" />
			<output>
				<port id="0" precision="FP32">
					<dim>384</dim>
					<dim>1</dim>
					<dim>1</dim>
					<dim>3</dim>
					<dim>3</dim>
				</port>
			</output>
		</layer>
		<layer id="138" name="/backbone/stage4/unit3/conv2/conv/Conv/WithoutBiases" type="GroupConvolution" version="opset1">
			<data strides="1, 1" pads_begin="1, 1" pads_end="1, 1" dilations="1, 1" auto_pad="explicit" />
			<input>
				<port id="0" precision="FP32">
					<dim>-1</dim>
					<dim>384</dim>
					<dim>46</dim>
					<dim>62</dim>
				</port>
				<port id="1" precision="FP32">
					<dim>384</dim>
					<dim>1</dim>
					<dim>1</dim>
					<dim>3</dim>
					<dim>3</dim>
				</port>
			</input>
			<output>
				<port id="2" precision="FP32">
					<dim>-1</dim>
					<dim>384</dim>
					<dim>46</dim>
					<dim>62</dim>
				</port>
			</output>
		</layer>
		<layer id="139" name="Reshape_1093" type="Const" version="opset1">
			<data element_type="f32" shape="1, 384, 1, 1" offset="637488" size="1536" />
			<output>
				<port id="0" precision="FP32">
					<dim>1</dim>
					<dim>384</dim>
					<dim>1</dim>
					<dim>1</dim>
				</port>
			</output>
		</layer>
		<layer id="140" name="/backbone/stage4/unit3/conv2/conv/Conv" type="Add" version="opset1">
			<data auto_broadcast="numpy" />
			<input>
				<port id="0" precision="FP32">
					<dim>-1</dim>
					<dim>384</dim>
					<dim>46</dim>
					<dim>62</dim>
				</port>
				<port id="1" precision="FP32">
					<dim>1</dim>
					<dim>384</dim>
					<dim>1</dim>
					<dim>1</dim>
				</port>
			</input>
			<output>
				<port id="2" precision="FP32" names="/backbone/stage4/unit3/conv2/conv/Conv_output_0">
					<dim>-1</dim>
					<dim>384</dim>
					<dim>46</dim>
					<dim>62</dim>
				</port>
			</output>
		</layer>
		<layer id="141" name="/backbone/stage4/unit3/conv2/activ/Clip" type="Clamp" version="opset1">
			<data min="0" max="6" />
			<input>
				<port id="0" precision="FP32">
					<dim>-1</dim>
					<dim>384</dim>
					<dim>46</dim>
					<dim>62</dim>
				</port>
			</input>
			<output>
				<port id="1" precision="FP32" names="/backbone/stage4/unit3/conv2/activ/Clip_output_0">
					<dim>-1</dim>
					<dim>384</dim>
					<dim>46</dim>
					<dim>62</dim>
				</port>
			</output>
		</layer>
		<layer id="142" name="onnx::Conv_2371" type="Const" version="opset1">
			<data element_type="f32" shape="64, 384, 1, 1" offset="639024" size="98304" />
			<output>
				<port id="0" precision="FP32" names="onnx::Conv_2371">
					<dim>64</dim>
					<dim>384</dim>
					<dim>1</dim>
					<dim>1</dim>
				</port>
			</output>
		</layer>
		<layer id="143" name="/backbone/stage4/unit3/conv3/conv/Conv/WithoutBiases" type="Convolution" version="opset1">
			<data strides="1, 1" dilations="1, 1" pads_begin="0, 0" pads_end="0, 0" auto_pad="explicit" />
			<input>
				<port id="0" precision="FP32">
					<dim>-1</dim>
					<dim>384</dim>
					<dim>46</dim>
					<dim>62</dim>
				</port>
				<port id="1" precision="FP32">
					<dim>64</dim>
					<dim>384</dim>
					<dim>1</dim>
					<dim>1</dim>
				</port>
			</input>
			<output>
				<port id="2" precision="FP32">
					<dim>-1</dim>
					<dim>64</dim>
					<dim>46</dim>
					<dim>62</dim>
				</port>
			</output>
		</layer>
		<layer id="144" name="Reshape_1113" type="Const" version="opset1">
			<data element_type="f32" shape="1, 64, 1, 1" offset="737328" size="256" />
			<output>
				<port id="0" precision="FP32">
					<dim>1</dim>
					<dim>64</dim>
					<dim>1</dim>
					<dim>1</dim>
				</port>
			</output>
		</layer>
		<layer id="145" name="/backbone/stage4/unit3/conv3/conv/Conv" type="Add" version="opset1">
			<data auto_broadcast="numpy" />
			<input>
				<port id="0" precision="FP32">
					<dim>-1</dim>
					<dim>64</dim>
					<dim>46</dim>
					<dim>62</dim>
				</port>
				<port id="1" precision="FP32">
					<dim>1</dim>
					<dim>64</dim>
					<dim>1</dim>
					<dim>1</dim>
				</port>
			</input>
			<output>
				<port id="2" precision="FP32" names="/backbone/stage4/unit3/conv3/conv/Conv_output_0">
					<dim>-1</dim>
					<dim>64</dim>
					<dim>46</dim>
					<dim>62</dim>
				</port>
			</output>
		</layer>
		<layer id="146" name="/backbone/stage4/unit3/Add" type="Add" version="opset1">
			<data auto_broadcast="numpy" />
			<input>
				<port id="0" precision="FP32">
					<dim>-1</dim>
					<dim>64</dim>
					<dim>46</dim>
					<dim>62</dim>
				</port>
				<port id="1" precision="FP32">
					<dim>-1</dim>
					<dim>64</dim>
					<dim>46</dim>
					<dim>62</dim>
				</port>
			</input>
			<output>
				<port id="2" precision="FP32" names="/backbone/stage4/unit3/Add_output_0">
					<dim>-1</dim>
					<dim>64</dim>
					<dim>46</dim>
					<dim>62</dim>
				</port>
			</output>
		</layer>
		<layer id="147" name="onnx::Conv_2374" type="Const" version="opset1">
			<data element_type="f32" shape="384, 64, 1, 1" offset="737584" size="98304" />
			<output>
				<port id="0" precision="FP32" names="onnx::Conv_2374">
					<dim>384</dim>
					<dim>64</dim>
					<dim>1</dim>
					<dim>1</dim>
				</port>
			</output>
		</layer>
		<layer id="148" name="/backbone/stage4/unit4/conv1/conv/Conv/WithoutBiases" type="Convolution" version="opset1">
			<data strides="1, 1" dilations="1, 1" pads_begin="0, 0" pads_end="0, 0" auto_pad="explicit" />
			<input>
				<port id="0" precision="FP32">
					<dim>-1</dim>
					<dim>64</dim>
					<dim>46</dim>
					<dim>62</dim>
				</port>
				<port id="1" precision="FP32">
					<dim>384</dim>
					<dim>64</dim>
					<dim>1</dim>
					<dim>1</dim>
				</port>
			</input>
			<output>
				<port id="2" precision="FP32">
					<dim>-1</dim>
					<dim>384</dim>
					<dim>46</dim>
					<dim>62</dim>
				</port>
			</output>
		</layer>
		<layer id="149" name="Reshape_1130" type="Const" version="opset1">
			<data element_type="f32" shape="1, 384, 1, 1" offset="835888" size="1536" />
			<output>
				<port id="0" precision="FP32">
					<dim>1</dim>
					<dim>384</dim>
					<dim>1</dim>
					<dim>1</dim>
				</port>
			</output>
		</layer>
		<layer id="150" name="/backbone/stage4/unit4/conv1/conv/Conv" type="Add" version="opset1">
			<data auto_broadcast="numpy" />
			<input>
				<port id="0" precision="FP32">
					<dim>-1</dim>
					<dim>384</dim>
					<dim>46</dim>
					<dim>62</dim>
				</port>
				<port id="1" precision="FP32">
					<dim>1</dim>
					<dim>384</dim>
					<dim>1</dim>
					<dim>1</dim>
				</port>
			</input>
			<output>
				<port id="2" precision="FP32" names="/backbone/stage4/unit4/conv1/conv/Conv_output_0">
					<dim>-1</dim>
					<dim>384</dim>
					<dim>46</dim>
					<dim>62</dim>
				</port>
			</output>
		</layer>
		<layer id="151" name="/backbone/stage4/unit4/conv1/activ/Clip" type="Clamp" version="opset1">
			<data min="0" max="6" />
			<input>
				<port id="0" precision="FP32">
					<dim>-1</dim>
					<dim>384</dim>
					<dim>46</dim>
					<dim>62</dim>
				</port>
			</input>
			<output>
				<port id="1" precision="FP32" names="/backbone/stage4/unit4/conv1/activ/Clip_output_0">
					<dim>-1</dim>
					<dim>384</dim>
					<dim>46</dim>
					<dim>62</dim>
				</port>
			</output>
		</layer>
		<layer id="152" name="Reshape_1145" type="Const" version="opset1">
			<data element_type="f32" shape="384, 1, 1, 3, 3" offset="837424" size="13824" />
			<output>
				<port id="0" precision="FP32">
					<dim>384</dim>
					<dim>1</dim>
					<dim>1</dim>
					<dim>3</dim>
					<dim>3</dim>
				</port>
			</output>
		</layer>
		<layer id="153" name="/backbone/stage4/unit4/conv2/conv/Conv/WithoutBiases" type="GroupConvolution" version="opset1">
			<data strides="1, 1" pads_begin="1, 1" pads_end="1, 1" dilations="1, 1" auto_pad="explicit" />
			<input>
				<port id="0" precision="FP32">
					<dim>-1</dim>
					<dim>384</dim>
					<dim>46</dim>
					<dim>62</dim>
				</port>
				<port id="1" precision="FP32">
					<dim>384</dim>
					<dim>1</dim>
					<dim>1</dim>
					<dim>3</dim>
					<dim>3</dim>
				</port>
			</input>
			<output>
				<port id="2" precision="FP32">
					<dim>-1</dim>
					<dim>384</dim>
					<dim>46</dim>
					<dim>62</dim>
				</port>
			</output>
		</layer>
		<layer id="154" name="Reshape_1197" type="Const" version="opset1">
			<data element_type="f32" shape="1, 384, 1, 1" offset="851248" size="1536" />
			<output>
				<port id="0" precision="FP32">
					<dim>1</dim>
					<dim>384</dim>
					<dim>1</dim>
					<dim>1</dim>
				</port>
			</output>
		</layer>
		<layer id="155" name="/backbone/stage4/unit4/conv2/conv/Conv" type="Add" version="opset1">
			<data auto_broadcast="numpy" />
			<input>
				<port id="0" precision="FP32">
					<dim>-1</dim>
					<dim>384</dim>
					<dim>46</dim>
					<dim>62</dim>
				</port>
				<port id="1" precision="FP32">
					<dim>1</dim>
					<dim>384</dim>
					<dim>1</dim>
					<dim>1</dim>
				</port>
			</input>
			<output>
				<port id="2" precision="FP32" names="/backbone/stage4/unit4/conv2/conv/Conv_output_0">
					<dim>-1</dim>
					<dim>384</dim>
					<dim>46</dim>
					<dim>62</dim>
				</port>
			</output>
		</layer>
		<layer id="156" name="/backbone/stage4/unit4/conv2/activ/Clip" type="Clamp" version="opset1">
			<data min="0" max="6" />
			<input>
				<port id="0" precision="FP32">
					<dim>-1</dim>
					<dim>384</dim>
					<dim>46</dim>
					<dim>62</dim>
				</port>
			</input>
			<output>
				<port id="1" precision="FP32" names="/backbone/stage4/unit4/conv2/activ/Clip_output_0">
					<dim>-1</dim>
					<dim>384</dim>
					<dim>46</dim>
					<dim>62</dim>
				</port>
			</output>
		</layer>
		<layer id="157" name="onnx::Conv_2380" type="Const" version="opset1">
			<data element_type="f32" shape="64, 384, 1, 1" offset="852784" size="98304" />
			<output>
				<port id="0" precision="FP32" names="onnx::Conv_2380">
					<dim>64</dim>
					<dim>384</dim>
					<dim>1</dim>
					<dim>1</dim>
				</port>
			</output>
		</layer>
		<layer id="158" name="/backbone/stage4/unit4/conv3/conv/Conv/WithoutBiases" type="Convolution" version="opset1">
			<data strides="1, 1" dilations="1, 1" pads_begin="0, 0" pads_end="0, 0" auto_pad="explicit" />
			<input>
				<port id="0" precision="FP32">
					<dim>-1</dim>
					<dim>384</dim>
					<dim>46</dim>
					<dim>62</dim>
				</port>
				<port id="1" precision="FP32">
					<dim>64</dim>
					<dim>384</dim>
					<dim>1</dim>
					<dim>1</dim>
				</port>
			</input>
			<output>
				<port id="2" precision="FP32">
					<dim>-1</dim>
					<dim>64</dim>
					<dim>46</dim>
					<dim>62</dim>
				</port>
			</output>
		</layer>
		<layer id="159" name="Reshape_1217" type="Const" version="opset1">
			<data element_type="f32" shape="1, 64, 1, 1" offset="951088" size="256" />
			<output>
				<port id="0" precision="FP32">
					<dim>1</dim>
					<dim>64</dim>
					<dim>1</dim>
					<dim>1</dim>
				</port>
			</output>
		</layer>
		<layer id="160" name="/backbone/stage4/unit4/conv3/conv/Conv" type="Add" version="opset1">
			<data auto_broadcast="numpy" />
			<input>
				<port id="0" precision="FP32">
					<dim>-1</dim>
					<dim>64</dim>
					<dim>46</dim>
					<dim>62</dim>
				</port>
				<port id="1" precision="FP32">
					<dim>1</dim>
					<dim>64</dim>
					<dim>1</dim>
					<dim>1</dim>
				</port>
			</input>
			<output>
				<port id="2" precision="FP32" names="/backbone/stage4/unit4/conv3/conv/Conv_output_0">
					<dim>-1</dim>
					<dim>64</dim>
					<dim>46</dim>
					<dim>62</dim>
				</port>
			</output>
		</layer>
		<layer id="161" name="/backbone/stage4/unit4/Add" type="Add" version="opset1">
			<data auto_broadcast="numpy" />
			<input>
				<port id="0" precision="FP32">
					<dim>-1</dim>
					<dim>64</dim>
					<dim>46</dim>
					<dim>62</dim>
				</port>
				<port id="1" precision="FP32">
					<dim>-1</dim>
					<dim>64</dim>
					<dim>46</dim>
					<dim>62</dim>
				</port>
			</input>
			<output>
				<port id="2" precision="FP32" names="/backbone/stage4/unit4/Add_output_0">
					<dim>-1</dim>
					<dim>64</dim>
					<dim>46</dim>
					<dim>62</dim>
				</port>
			</output>
		</layer>
		<layer id="162" name="onnx::Conv_2383" type="Const" version="opset1">
			<data element_type="f32" shape="384, 64, 1, 1" offset="951344" size="98304" />
			<output>
				<port id="0" precision="FP32" names="onnx::Conv_2383">
					<dim>384</dim>
					<dim>64</dim>
					<dim>1</dim>
					<dim>1</dim>
				</port>
			</output>
		</layer>
		<layer id="163" name="/backbone/stage4/unit5/conv1/conv/Conv/WithoutBiases" type="Convolution" version="opset1">
			<data strides="1, 1" dilations="1, 1" pads_begin="0, 0" pads_end="0, 0" auto_pad="explicit" />
			<input>
				<port id="0" precision="FP32">
					<dim>-1</dim>
					<dim>64</dim>
					<dim>46</dim>
					<dim>62</dim>
				</port>
				<port id="1" precision="FP32">
					<dim>384</dim>
					<dim>64</dim>
					<dim>1</dim>
					<dim>1</dim>
				</port>
			</input>
			<output>
				<port id="2" precision="FP32">
					<dim>-1</dim>
					<dim>384</dim>
					<dim>46</dim>
					<dim>62</dim>
				</port>
			</output>
		</layer>
		<layer id="164" name="Reshape_1234" type="Const" version="opset1">
			<data element_type="f32" shape="1, 384, 1, 1" offset="1049648" size="1536" />
			<output>
				<port id="0" precision="FP32">
					<dim>1</dim>
					<dim>384</dim>
					<dim>1</dim>
					<dim>1</dim>
				</port>
			</output>
		</layer>
		<layer id="165" name="/backbone/stage4/unit5/conv1/conv/Conv" type="Add" version="opset1">
			<data auto_broadcast="numpy" />
			<input>
				<port id="0" precision="FP32">
					<dim>-1</dim>
					<dim>384</dim>
					<dim>46</dim>
					<dim>62</dim>
				</port>
				<port id="1" precision="FP32">
					<dim>1</dim>
					<dim>384</dim>
					<dim>1</dim>
					<dim>1</dim>
				</port>
			</input>
			<output>
				<port id="2" precision="FP32" names="/backbone/stage4/unit5/conv1/conv/Conv_output_0">
					<dim>-1</dim>
					<dim>384</dim>
					<dim>46</dim>
					<dim>62</dim>
				</port>
			</output>
		</layer>
		<layer id="166" name="/backbone/stage4/unit5/conv1/activ/Clip" type="Clamp" version="opset1">
			<data min="0" max="6" />
			<input>
				<port id="0" precision="FP32">
					<dim>-1</dim>
					<dim>384</dim>
					<dim>46</dim>
					<dim>62</dim>
				</port>
			</input>
			<output>
				<port id="1" precision="FP32" names="/backbone/stage4/unit5/conv1/activ/Clip_output_0">
					<dim>-1</dim>
					<dim>384</dim>
					<dim>46</dim>
					<dim>62</dim>
				</port>
			</output>
		</layer>
		<layer id="167" name="Reshape_1249" type="Const" version="opset1">
			<data element_type="f32" shape="384, 1, 1, 3, 3" offset="1051184" size="13824" />
			<output>
				<port id="0" precision="FP32">
					<dim>384</dim>
					<dim>1</dim>
					<dim>1</dim>
					<dim>3</dim>
					<dim>3</dim>
				</port>
			</output>
		</layer>
		<layer id="168" name="/backbone/stage4/unit5/conv2/conv/Conv/WithoutBiases" type="GroupConvolution" version="opset1">
			<data strides="1, 1" pads_begin="1, 1" pads_end="1, 1" dilations="1, 1" auto_pad="explicit" />
			<input>
				<port id="0" precision="FP32">
					<dim>-1</dim>
					<dim>384</dim>
					<dim>46</dim>
					<dim>62</dim>
				</port>
				<port id="1" precision="FP32">
					<dim>384</dim>
					<dim>1</dim>
					<dim>1</dim>
					<dim>3</dim>
					<dim>3</dim>
				</port>
			</input>
			<output>
				<port id="2" precision="FP32">
					<dim>-1</dim>
					<dim>384</dim>
					<dim>46</dim>
					<dim>62</dim>
				</port>
			</output>
		</layer>
		<layer id="169" name="Reshape_1301" type="Const" version="opset1">
			<data element_type="f32" shape="1, 384, 1, 1" offset="1065008" size="1536" />
			<output>
				<port id="0" precision="FP32">
					<dim>1</dim>
					<dim>384</dim>
					<dim>1</dim>
					<dim>1</dim>
				</port>
			</output>
		</layer>
		<layer id="170" name="/backbone/stage4/unit5/conv2/conv/Conv" type="Add" version="opset1">
			<data auto_broadcast="numpy" />
			<input>
				<port id="0" precision="FP32">
					<dim>-1</dim>
					<dim>384</dim>
					<dim>46</dim>
					<dim>62</dim>
				</port>
				<port id="1" precision="FP32">
					<dim>1</dim>
					<dim>384</dim>
					<dim>1</dim>
					<dim>1</dim>
				</port>
			</input>
			<output>
				<port id="2" precision="FP32" names="/backbone/stage4/unit5/conv2/conv/Conv_output_0">
					<dim>-1</dim>
					<dim>384</dim>
					<dim>46</dim>
					<dim>62</dim>
				</port>
			</output>
		</layer>
		<layer id="171" name="/backbone/stage4/unit5/conv2/activ/Clip" type="Clamp" version="opset1">
			<data min="0" max="6" />
			<input>
				<port id="0" precision="FP32">
					<dim>-1</dim>
					<dim>384</dim>
					<dim>46</dim>
					<dim>62</dim>
				</port>
			</input>
			<output>
				<port id="1" precision="FP32" names="/backbone/stage4/unit5/conv2/activ/Clip_output_0">
					<dim>-1</dim>
					<dim>384</dim>
					<dim>46</dim>
					<dim>62</dim>
				</port>
			</output>
		</layer>
		<layer id="172" name="onnx::Conv_2389" type="Const" version="opset1">
			<data element_type="f32" shape="96, 384, 1, 1" offset="1066544" size="147456" />
			<output>
				<port id="0" precision="FP32" names="onnx::Conv_2389">
					<dim>96</dim>
					<dim>384</dim>
					<dim>1</dim>
					<dim>1</dim>
				</port>
			</output>
		</layer>
		<layer id="173" name="/backbone/stage4/unit5/conv3/conv/Conv/WithoutBiases" type="Convolution" version="opset1">
			<data strides="1, 1" dilations="1, 1" pads_begin="0, 0" pads_end="0, 0" auto_pad="explicit" />
			<input>
				<port id="0" precision="FP32">
					<dim>-1</dim>
					<dim>384</dim>
					<dim>46</dim>
					<dim>62</dim>
				</port>
				<port id="1" precision="FP32">
					<dim>96</dim>
					<dim>384</dim>
					<dim>1</dim>
					<dim>1</dim>
				</port>
			</input>
			<output>
				<port id="2" precision="FP32">
					<dim>-1</dim>
					<dim>96</dim>
					<dim>46</dim>
					<dim>62</dim>
				</port>
			</output>
		</layer>
		<layer id="174" name="Reshape_1321" type="Const" version="opset1">
			<data element_type="f32" shape="1, 96, 1, 1" offset="1214000" size="384" />
			<output>
				<port id="0" precision="FP32">
					<dim>1</dim>
					<dim>96</dim>
					<dim>1</dim>
					<dim>1</dim>
				</port>
			</output>
		</layer>
		<layer id="175" name="/backbone/stage4/unit5/conv3/conv/Conv" type="Add" version="opset1">
			<data auto_broadcast="numpy" />
			<input>
				<port id="0" precision="FP32">
					<dim>-1</dim>
					<dim>96</dim>
					<dim>46</dim>
					<dim>62</dim>
				</port>
				<port id="1" precision="FP32">
					<dim>1</dim>
					<dim>96</dim>
					<dim>1</dim>
					<dim>1</dim>
				</port>
			</input>
			<output>
				<port id="2" precision="FP32" names="/backbone/stage4/unit5/conv3/conv/Conv_output_0">
					<dim>-1</dim>
					<dim>96</dim>
					<dim>46</dim>
					<dim>62</dim>
				</port>
			</output>
		</layer>
		<layer id="176" name="onnx::Conv_2392" type="Const" version="opset1">
			<data element_type="f32" shape="576, 96, 1, 1" offset="1214384" size="221184" />
			<output>
				<port id="0" precision="FP32" names="onnx::Conv_2392">
					<dim>576</dim>
					<dim>96</dim>
					<dim>1</dim>
					<dim>1</dim>
				</port>
			</output>
		</layer>
		<layer id="177" name="/backbone/stage4/unit6/conv1/conv/Conv/WithoutBiases" type="Convolution" version="opset1">
			<data strides="1, 1" dilations="1, 1" pads_begin="0, 0" pads_end="0, 0" auto_pad="explicit" />
			<input>
				<port id="0" precision="FP32">
					<dim>-1</dim>
					<dim>96</dim>
					<dim>46</dim>
					<dim>62</dim>
				</port>
				<port id="1" precision="FP32">
					<dim>576</dim>
					<dim>96</dim>
					<dim>1</dim>
					<dim>1</dim>
				</port>
			</input>
			<output>
				<port id="2" precision="FP32">
					<dim>-1</dim>
					<dim>576</dim>
					<dim>46</dim>
					<dim>62</dim>
				</port>
			</output>
		</layer>
		<layer id="178" name="Reshape_1337" type="Const" version="opset1">
			<data element_type="f32" shape="1, 576, 1, 1" offset="1435568" size="2304" />
			<output>
				<port id="0" precision="FP32">
					<dim>1</dim>
					<dim>576</dim>
					<dim>1</dim>
					<dim>1</dim>
				</port>
			</output>
		</layer>
		<layer id="179" name="/backbone/stage4/unit6/conv1/conv/Conv" type="Add" version="opset1">
			<data auto_broadcast="numpy" />
			<input>
				<port id="0" precision="FP32">
					<dim>-1</dim>
					<dim>576</dim>
					<dim>46</dim>
					<dim>62</dim>
				</port>
				<port id="1" precision="FP32">
					<dim>1</dim>
					<dim>576</dim>
					<dim>1</dim>
					<dim>1</dim>
				</port>
			</input>
			<output>
				<port id="2" precision="FP32" names="/backbone/stage4/unit6/conv1/conv/Conv_output_0">
					<dim>-1</dim>
					<dim>576</dim>
					<dim>46</dim>
					<dim>62</dim>
				</port>
			</output>
		</layer>
		<layer id="180" name="/backbone/stage4/unit6/conv1/activ/Clip" type="Clamp" version="opset1">
			<data min="0" max="6" />
			<input>
				<port id="0" precision="FP32">
					<dim>-1</dim>
					<dim>576</dim>
					<dim>46</dim>
					<dim>62</dim>
				</port>
			</input>
			<output>
				<port id="1" precision="FP32" names="/backbone/stage4/unit6/conv1/activ/Clip_output_0">
					<dim>-1</dim>
					<dim>576</dim>
					<dim>46</dim>
					<dim>62</dim>
				</port>
			</output>
		</layer>
		<layer id="181" name="Reshape_1352" type="Const" version="opset1">
			<data element_type="f32" shape="576, 1, 1, 3, 3" offset="1437872" size="20736" />
			<output>
				<port id="0" precision="FP32">
					<dim>576</dim>
					<dim>1</dim>
					<dim>1</dim>
					<dim>3</dim>
					<dim>3</dim>
				</port>
			</output>
		</layer>
		<layer id="182" name="/backbone/stage4/unit6/conv2/conv/Conv/WithoutBiases" type="GroupConvolution" version="opset1">
			<data strides="1, 1" pads_begin="1, 1" pads_end="1, 1" dilations="1, 1" auto_pad="explicit" />
			<input>
				<port id="0" precision="FP32">
					<dim>-1</dim>
					<dim>576</dim>
					<dim>46</dim>
					<dim>62</dim>
				</port>
				<port id="1" precision="FP32">
					<dim>576</dim>
					<dim>1</dim>
					<dim>1</dim>
					<dim>3</dim>
					<dim>3</dim>
				</port>
			</input>
			<output>
				<port id="2" precision="FP32">
					<dim>-1</dim>
					<dim>576</dim>
					<dim>46</dim>
					<dim>62</dim>
				</port>
			</output>
		</layer>
		<layer id="183" name="Reshape_1404" type="Const" version="opset1">
			<data element_type="f32" shape="1, 576, 1, 1" offset="1458608" size="2304" />
			<output>
				<port id="0" precision="FP32">
					<dim>1</dim>
					<dim>576</dim>
					<dim>1</dim>
					<dim>1</dim>
				</port>
			</output>
		</layer>
		<layer id="184" name="/backbone/stage4/unit6/conv2/conv/Conv" type="Add" version="opset1">
			<data auto_broadcast="numpy" />
			<input>
				<port id="0" precision="FP32">
					<dim>-1</dim>
					<dim>576</dim>
					<dim>46</dim>
					<dim>62</dim>
				</port>
				<port id="1" precision="FP32">
					<dim>1</dim>
					<dim>576</dim>
					<dim>1</dim>
					<dim>1</dim>
				</port>
			</input>
			<output>
				<port id="2" precision="FP32" names="/backbone/stage4/unit6/conv2/conv/Conv_output_0">
					<dim>-1</dim>
					<dim>576</dim>
					<dim>46</dim>
					<dim>62</dim>
				</port>
			</output>
		</layer>
		<layer id="185" name="/backbone/stage4/unit6/conv2/activ/Clip" type="Clamp" version="opset1">
			<data min="0" max="6" />
			<input>
				<port id="0" precision="FP32">
					<dim>-1</dim>
					<dim>576</dim>
					<dim>46</dim>
					<dim>62</dim>
				</port>
			</input>
			<output>
				<port id="1" precision="FP32" names="/backbone/stage4/unit6/conv2/activ/Clip_output_0">
					<dim>-1</dim>
					<dim>576</dim>
					<dim>46</dim>
					<dim>62</dim>
				</port>
			</output>
		</layer>
		<layer id="186" name="onnx::Conv_2398" type="Const" version="opset1">
			<data element_type="f32" shape="96, 576, 1, 1" offset="1460912" size="221184" />
			<output>
				<port id="0" precision="FP32" names="onnx::Conv_2398">
					<dim>96</dim>
					<dim>576</dim>
					<dim>1</dim>
					<dim>1</dim>
				</port>
			</output>
		</layer>
		<layer id="187" name="/backbone/stage4/unit6/conv3/conv/Conv/WithoutBiases" type="Convolution" version="opset1">
			<data strides="1, 1" dilations="1, 1" pads_begin="0, 0" pads_end="0, 0" auto_pad="explicit" />
			<input>
				<port id="0" precision="FP32">
					<dim>-1</dim>
					<dim>576</dim>
					<dim>46</dim>
					<dim>62</dim>
				</port>
				<port id="1" precision="FP32">
					<dim>96</dim>
					<dim>576</dim>
					<dim>1</dim>
					<dim>1</dim>
				</port>
			</input>
			<output>
				<port id="2" precision="FP32">
					<dim>-1</dim>
					<dim>96</dim>
					<dim>46</dim>
					<dim>62</dim>
				</port>
			</output>
		</layer>
		<layer id="188" name="Reshape_1424" type="Const" version="opset1">
			<data element_type="f32" shape="1, 96, 1, 1" offset="1682096" size="384" />
			<output>
				<port id="0" precision="FP32">
					<dim>1</dim>
					<dim>96</dim>
					<dim>1</dim>
					<dim>1</dim>
				</port>
			</output>
		</layer>
		<layer id="189" name="/backbone/stage4/unit6/conv3/conv/Conv" type="Add" version="opset1">
			<data auto_broadcast="numpy" />
			<input>
				<port id="0" precision="FP32">
					<dim>-1</dim>
					<dim>96</dim>
					<dim>46</dim>
					<dim>62</dim>
				</port>
				<port id="1" precision="FP32">
					<dim>1</dim>
					<dim>96</dim>
					<dim>1</dim>
					<dim>1</dim>
				</port>
			</input>
			<output>
				<port id="2" precision="FP32" names="/backbone/stage4/unit6/conv3/conv/Conv_output_0">
					<dim>-1</dim>
					<dim>96</dim>
					<dim>46</dim>
					<dim>62</dim>
				</port>
			</output>
		</layer>
		<layer id="190" name="/backbone/stage4/unit6/Add" type="Add" version="opset1">
			<data auto_broadcast="numpy" />
			<input>
				<port id="0" precision="FP32">
					<dim>-1</dim>
					<dim>96</dim>
					<dim>46</dim>
					<dim>62</dim>
				</port>
				<port id="1" precision="FP32">
					<dim>-1</dim>
					<dim>96</dim>
					<dim>46</dim>
					<dim>62</dim>
				</port>
			</input>
			<output>
				<port id="2" precision="FP32" names="/backbone/stage4/unit6/Add_output_0">
					<dim>-1</dim>
					<dim>96</dim>
					<dim>46</dim>
					<dim>62</dim>
				</port>
			</output>
		</layer>
		<layer id="191" name="onnx::Conv_2401" type="Const" version="opset1">
			<data element_type="f32" shape="576, 96, 1, 1" offset="1682480" size="221184" />
			<output>
				<port id="0" precision="FP32" names="onnx::Conv_2401">
					<dim>576</dim>
					<dim>96</dim>
					<dim>1</dim>
					<dim>1</dim>
				</port>
			</output>
		</layer>
		<layer id="192" name="/backbone/stage4/unit7/conv1/conv/Conv/WithoutBiases" type="Convolution" version="opset1">
			<data strides="1, 1" dilations="1, 1" pads_begin="0, 0" pads_end="0, 0" auto_pad="explicit" />
			<input>
				<port id="0" precision="FP32">
					<dim>-1</dim>
					<dim>96</dim>
					<dim>46</dim>
					<dim>62</dim>
				</port>
				<port id="1" precision="FP32">
					<dim>576</dim>
					<dim>96</dim>
					<dim>1</dim>
					<dim>1</dim>
				</port>
			</input>
			<output>
				<port id="2" precision="FP32">
					<dim>-1</dim>
					<dim>576</dim>
					<dim>46</dim>
					<dim>62</dim>
				</port>
			</output>
		</layer>
		<layer id="193" name="Reshape_1441" type="Const" version="opset1">
			<data element_type="f32" shape="1, 576, 1, 1" offset="1903664" size="2304" />
			<output>
				<port id="0" precision="FP32">
					<dim>1</dim>
					<dim>576</dim>
					<dim>1</dim>
					<dim>1</dim>
				</port>
			</output>
		</layer>
		<layer id="194" name="/backbone/stage4/unit7/conv1/conv/Conv" type="Add" version="opset1">
			<data auto_broadcast="numpy" />
			<input>
				<port id="0" precision="FP32">
					<dim>-1</dim>
					<dim>576</dim>
					<dim>46</dim>
					<dim>62</dim>
				</port>
				<port id="1" precision="FP32">
					<dim>1</dim>
					<dim>576</dim>
					<dim>1</dim>
					<dim>1</dim>
				</port>
			</input>
			<output>
				<port id="2" precision="FP32" names="/backbone/stage4/unit7/conv1/conv/Conv_output_0">
					<dim>-1</dim>
					<dim>576</dim>
					<dim>46</dim>
					<dim>62</dim>
				</port>
			</output>
		</layer>
		<layer id="195" name="/backbone/stage4/unit7/conv1/activ/Clip" type="Clamp" version="opset1">
			<data min="0" max="6" />
			<input>
				<port id="0" precision="FP32">
					<dim>-1</dim>
					<dim>576</dim>
					<dim>46</dim>
					<dim>62</dim>
				</port>
			</input>
			<output>
				<port id="1" precision="FP32" names="/backbone/stage4/unit7/conv1/activ/Clip_output_0">
					<dim>-1</dim>
					<dim>576</dim>
					<dim>46</dim>
					<dim>62</dim>
				</port>
			</output>
		</layer>
		<layer id="196" name="Reshape_1456" type="Const" version="opset1">
			<data element_type="f32" shape="576, 1, 1, 3, 3" offset="1905968" size="20736" />
			<output>
				<port id="0" precision="FP32">
					<dim>576</dim>
					<dim>1</dim>
					<dim>1</dim>
					<dim>3</dim>
					<dim>3</dim>
				</port>
			</output>
		</layer>
		<layer id="197" name="/backbone/stage4/unit7/conv2/conv/Conv/WithoutBiases" type="GroupConvolution" version="opset1">
			<data strides="1, 1" pads_begin="1, 1" pads_end="1, 1" dilations="1, 1" auto_pad="explicit" />
			<input>
				<port id="0" precision="FP32">
					<dim>-1</dim>
					<dim>576</dim>
					<dim>46</dim>
					<dim>62</dim>
				</port>
				<port id="1" precision="FP32">
					<dim>576</dim>
					<dim>1</dim>
					<dim>1</dim>
					<dim>3</dim>
					<dim>3</dim>
				</port>
			</input>
			<output>
				<port id="2" precision="FP32">
					<dim>-1</dim>
					<dim>576</dim>
					<dim>46</dim>
					<dim>62</dim>
				</port>
			</output>
		</layer>
		<layer id="198" name="Reshape_1508" type="Const" version="opset1">
			<data element_type="f32" shape="1, 576, 1, 1" offset="1926704" size="2304" />
			<output>
				<port id="0" precision="FP32">
					<dim>1</dim>
					<dim>576</dim>
					<dim>1</dim>
					<dim>1</dim>
				</port>
			</output>
		</layer>
		<layer id="199" name="/backbone/stage4/unit7/conv2/conv/Conv" type="Add" version="opset1">
			<data auto_broadcast="numpy" />
			<input>
				<port id="0" precision="FP32">
					<dim>-1</dim>
					<dim>576</dim>
					<dim>46</dim>
					<dim>62</dim>
				</port>
				<port id="1" precision="FP32">
					<dim>1</dim>
					<dim>576</dim>
					<dim>1</dim>
					<dim>1</dim>
				</port>
			</input>
			<output>
				<port id="2" precision="FP32" names="/backbone/stage4/unit7/conv2/conv/Conv_output_0">
					<dim>-1</dim>
					<dim>576</dim>
					<dim>46</dim>
					<dim>62</dim>
				</port>
			</output>
		</layer>
		<layer id="200" name="/backbone/stage4/unit7/conv2/activ/Clip" type="Clamp" version="opset1">
			<data min="0" max="6" />
			<input>
				<port id="0" precision="FP32">
					<dim>-1</dim>
					<dim>576</dim>
					<dim>46</dim>
					<dim>62</dim>
				</port>
			</input>
			<output>
				<port id="1" precision="FP32" names="/backbone/stage4/unit7/conv2/activ/Clip_output_0">
					<dim>-1</dim>
					<dim>576</dim>
					<dim>46</dim>
					<dim>62</dim>
				</port>
			</output>
		</layer>
		<layer id="201" name="onnx::Conv_2407" type="Const" version="opset1">
			<data element_type="f32" shape="96, 576, 1, 1" offset="1929008" size="221184" />
			<output>
				<port id="0" precision="FP32" names="onnx::Conv_2407">
					<dim>96</dim>
					<dim>576</dim>
					<dim>1</dim>
					<dim>1</dim>
				</port>
			</output>
		</layer>
		<layer id="202" name="/backbone/stage4/unit7/conv3/conv/Conv/WithoutBiases" type="Convolution" version="opset1">
			<data strides="1, 1" dilations="1, 1" pads_begin="0, 0" pads_end="0, 0" auto_pad="explicit" />
			<input>
				<port id="0" precision="FP32">
					<dim>-1</dim>
					<dim>576</dim>
					<dim>46</dim>
					<dim>62</dim>
				</port>
				<port id="1" precision="FP32">
					<dim>96</dim>
					<dim>576</dim>
					<dim>1</dim>
					<dim>1</dim>
				</port>
			</input>
			<output>
				<port id="2" precision="FP32">
					<dim>-1</dim>
					<dim>96</dim>
					<dim>46</dim>
					<dim>62</dim>
				</port>
			</output>
		</layer>
		<layer id="203" name="Reshape_1528" type="Const" version="opset1">
			<data element_type="f32" shape="1, 96, 1, 1" offset="2150192" size="384" />
			<output>
				<port id="0" precision="FP32">
					<dim>1</dim>
					<dim>96</dim>
					<dim>1</dim>
					<dim>1</dim>
				</port>
			</output>
		</layer>
		<layer id="204" name="/backbone/stage4/unit7/conv3/conv/Conv" type="Add" version="opset1">
			<data auto_broadcast="numpy" />
			<input>
				<port id="0" precision="FP32">
					<dim>-1</dim>
					<dim>96</dim>
					<dim>46</dim>
					<dim>62</dim>
				</port>
				<port id="1" precision="FP32">
					<dim>1</dim>
					<dim>96</dim>
					<dim>1</dim>
					<dim>1</dim>
				</port>
			</input>
			<output>
				<port id="2" precision="FP32" names="/backbone/stage4/unit7/conv3/conv/Conv_output_0">
					<dim>-1</dim>
					<dim>96</dim>
					<dim>46</dim>
					<dim>62</dim>
				</port>
			</output>
		</layer>
		<layer id="205" name="/backbone/stage4/unit7/Add" type="Add" version="opset1">
			<data auto_broadcast="numpy" />
			<input>
				<port id="0" precision="FP32">
					<dim>-1</dim>
					<dim>96</dim>
					<dim>46</dim>
					<dim>62</dim>
				</port>
				<port id="1" precision="FP32">
					<dim>-1</dim>
					<dim>96</dim>
					<dim>46</dim>
					<dim>62</dim>
				</port>
			</input>
			<output>
				<port id="2" precision="FP32" names="/backbone/stage4/unit7/Add_output_0">
					<dim>-1</dim>
					<dim>96</dim>
					<dim>46</dim>
					<dim>62</dim>
				</port>
			</output>
		</layer>
		<layer id="206" name="neck.lateral_convs.1.conv.weight" type="Const" version="opset1">
			<data element_type="f32" shape="64, 96, 1, 1" offset="2150576" size="24576" />
			<output>
				<port id="0" precision="FP32" names="neck.lateral_convs.1.conv.weight">
					<dim>64</dim>
					<dim>96</dim>
					<dim>1</dim>
					<dim>1</dim>
				</port>
			</output>
		</layer>
		<layer id="207" name="/neck/lateral_convs.1/conv/Conv/WithoutBiases" type="Convolution" version="opset1">
			<data strides="1, 1" dilations="1, 1" pads_begin="0, 0" pads_end="0, 0" auto_pad="explicit" />
			<input>
				<port id="0" precision="FP32">
					<dim>-1</dim>
					<dim>96</dim>
					<dim>46</dim>
					<dim>62</dim>
				</port>
				<port id="1" precision="FP32">
					<dim>64</dim>
					<dim>96</dim>
					<dim>1</dim>
					<dim>1</dim>
				</port>
			</input>
			<output>
				<port id="2" precision="FP32">
					<dim>-1</dim>
					<dim>64</dim>
					<dim>46</dim>
					<dim>62</dim>
				</port>
			</output>
		</layer>
		<layer id="208" name="Reshape_1975" type="Const" version="opset1">
			<data element_type="f32" shape="1, 64, 1, 1" offset="2175152" size="256" />
			<output>
				<port id="0" precision="FP32">
					<dim>1</dim>
					<dim>64</dim>
					<dim>1</dim>
					<dim>1</dim>
				</port>
			</output>
		</layer>
		<layer id="209" name="/neck/lateral_convs.1/conv/Conv" type="Add" version="opset1">
			<data auto_broadcast="numpy" />
			<input>
				<port id="0" precision="FP32">
					<dim>-1</dim>
					<dim>64</dim>
					<dim>46</dim>
					<dim>62</dim>
				</port>
				<port id="1" precision="FP32">
					<dim>1</dim>
					<dim>64</dim>
					<dim>1</dim>
					<dim>1</dim>
				</port>
			</input>
			<output>
				<port id="2" precision="FP32" names="/neck/lateral_convs.1/conv/Conv_output_0">
					<dim>-1</dim>
					<dim>64</dim>
					<dim>46</dim>
					<dim>62</dim>
				</port>
			</output>
		</layer>
		<layer id="210" name="onnx::Conv_2410" type="Const" version="opset1">
			<data element_type="f32" shape="576, 96, 1, 1" offset="2175408" size="221184" />
			<output>
				<port id="0" precision="FP32" names="onnx::Conv_2410">
					<dim>576</dim>
					<dim>96</dim>
					<dim>1</dim>
					<dim>1</dim>
				</port>
			</output>
		</layer>
		<layer id="211" name="/backbone/stage5/unit1/conv1/conv/Conv/WithoutBiases" type="Convolution" version="opset1">
			<data strides="1, 1" dilations="1, 1" pads_begin="0, 0" pads_end="0, 0" auto_pad="explicit" />
			<input>
				<port id="0" precision="FP32">
					<dim>-1</dim>
					<dim>96</dim>
					<dim>46</dim>
					<dim>62</dim>
				</port>
				<port id="1" precision="FP32">
					<dim>576</dim>
					<dim>96</dim>
					<dim>1</dim>
					<dim>1</dim>
				</port>
			</input>
			<output>
				<port id="2" precision="FP32">
					<dim>-1</dim>
					<dim>576</dim>
					<dim>46</dim>
					<dim>62</dim>
				</port>
			</output>
		</layer>
		<layer id="212" name="Reshape_1545" type="Const" version="opset1">
			<data element_type="f32" shape="1, 576, 1, 1" offset="2396592" size="2304" />
			<output>
				<port id="0" precision="FP32">
					<dim>1</dim>
					<dim>576</dim>
					<dim>1</dim>
					<dim>1</dim>
				</port>
			</output>
		</layer>
		<layer id="213" name="/backbone/stage5/unit1/conv1/conv/Conv" type="Add" version="opset1">
			<data auto_broadcast="numpy" />
			<input>
				<port id="0" precision="FP32">
					<dim>-1</dim>
					<dim>576</dim>
					<dim>46</dim>
					<dim>62</dim>
				</port>
				<port id="1" precision="FP32">
					<dim>1</dim>
					<dim>576</dim>
					<dim>1</dim>
					<dim>1</dim>
				</port>
			</input>
			<output>
				<port id="2" precision="FP32" names="/backbone/stage5/unit1/conv1/conv/Conv_output_0">
					<dim>-1</dim>
					<dim>576</dim>
					<dim>46</dim>
					<dim>62</dim>
				</port>
			</output>
		</layer>
		<layer id="214" name="/backbone/stage5/unit1/conv1/activ/Clip" type="Clamp" version="opset1">
			<data min="0" max="6" />
			<input>
				<port id="0" precision="FP32">
					<dim>-1</dim>
					<dim>576</dim>
					<dim>46</dim>
					<dim>62</dim>
				</port>
			</input>
			<output>
				<port id="1" precision="FP32" names="/backbone/stage5/unit1/conv1/activ/Clip_output_0">
					<dim>-1</dim>
					<dim>576</dim>
					<dim>46</dim>
					<dim>62</dim>
				</port>
			</output>
		</layer>
		<layer id="215" name="Reshape_1560" type="Const" version="opset1">
			<data element_type="f32" shape="576, 1, 1, 3, 3" offset="2398896" size="20736" />
			<output>
				<port id="0" precision="FP32">
					<dim>576</dim>
					<dim>1</dim>
					<dim>1</dim>
					<dim>3</dim>
					<dim>3</dim>
				</port>
			</output>
		</layer>
		<layer id="216" name="/backbone/stage5/unit1/conv2/conv/Conv/WithoutBiases" type="GroupConvolution" version="opset1">
			<data strides="2, 2" pads_begin="1, 1" pads_end="1, 1" dilations="1, 1" auto_pad="explicit" />
			<input>
				<port id="0" precision="FP32">
					<dim>-1</dim>
					<dim>576</dim>
					<dim>46</dim>
					<dim>62</dim>
				</port>
				<port id="1" precision="FP32">
					<dim>576</dim>
					<dim>1</dim>
					<dim>1</dim>
					<dim>3</dim>
					<dim>3</dim>
				</port>
			</input>
			<output>
				<port id="2" precision="FP32">
					<dim>-1</dim>
					<dim>576</dim>
					<dim>23</dim>
					<dim>31</dim>
				</port>
			</output>
		</layer>
		<layer id="217" name="Reshape_1612" type="Const" version="opset1">
			<data element_type="f32" shape="1, 576, 1, 1" offset="2419632" size="2304" />
			<output>
				<port id="0" precision="FP32">
					<dim>1</dim>
					<dim>576</dim>
					<dim>1</dim>
					<dim>1</dim>
				</port>
			</output>
		</layer>
		<layer id="218" name="/backbone/stage5/unit1/conv2/conv/Conv" type="Add" version="opset1">
			<data auto_broadcast="numpy" />
			<input>
				<port id="0" precision="FP32">
					<dim>-1</dim>
					<dim>576</dim>
					<dim>23</dim>
					<dim>31</dim>
				</port>
				<port id="1" precision="FP32">
					<dim>1</dim>
					<dim>576</dim>
					<dim>1</dim>
					<dim>1</dim>
				</port>
			</input>
			<output>
				<port id="2" precision="FP32" names="/backbone/stage5/unit1/conv2/conv/Conv_output_0">
					<dim>-1</dim>
					<dim>576</dim>
					<dim>23</dim>
					<dim>31</dim>
				</port>
			</output>
		</layer>
		<layer id="219" name="/backbone/stage5/unit1/conv2/activ/Clip" type="Clamp" version="opset1">
			<data min="0" max="6" />
			<input>
				<port id="0" precision="FP32">
					<dim>-1</dim>
					<dim>576</dim>
					<dim>23</dim>
					<dim>31</dim>
				</port>
			</input>
			<output>
				<port id="1" precision="FP32" names="/backbone/stage5/unit1/conv2/activ/Clip_output_0">
					<dim>-1</dim>
					<dim>576</dim>
					<dim>23</dim>
					<dim>31</dim>
				</port>
			</output>
		</layer>
		<layer id="220" name="onnx::Conv_2416" type="Const" version="opset1">
			<data element_type="f32" shape="160, 576, 1, 1" offset="2421936" size="368640" />
			<output>
				<port id="0" precision="FP32" names="onnx::Conv_2416">
					<dim>160</dim>
					<dim>576</dim>
					<dim>1</dim>
					<dim>1</dim>
				</port>
			</output>
		</layer>
		<layer id="221" name="/backbone/stage5/unit1/conv3/conv/Conv/WithoutBiases" type="Convolution" version="opset1">
			<data strides="1, 1" dilations="1, 1" pads_begin="0, 0" pads_end="0, 0" auto_pad="explicit" />
			<input>
				<port id="0" precision="FP32">
					<dim>-1</dim>
					<dim>576</dim>
					<dim>23</dim>
					<dim>31</dim>
				</port>
				<port id="1" precision="FP32">
					<dim>160</dim>
					<dim>576</dim>
					<dim>1</dim>
					<dim>1</dim>
				</port>
			</input>
			<output>
				<port id="2" precision="FP32">
					<dim>-1</dim>
					<dim>160</dim>
					<dim>23</dim>
					<dim>31</dim>
				</port>
			</output>
		</layer>
		<layer id="222" name="Reshape_1632" type="Const" version="opset1">
			<data element_type="f32" shape="1, 160, 1, 1" offset="2790576" size="640" />
			<output>
				<port id="0" precision="FP32">
					<dim>1</dim>
					<dim>160</dim>
					<dim>1</dim>
					<dim>1</dim>
				</port>
			</output>
		</layer>
		<layer id="223" name="/backbone/stage5/unit1/conv3/conv/Conv" type="Add" version="opset1">
			<data auto_broadcast="numpy" />
			<input>
				<port id="0" precision="FP32">
					<dim>-1</dim>
					<dim>160</dim>
					<dim>23</dim>
					<dim>31</dim>
				</port>
				<port id="1" precision="FP32">
					<dim>1</dim>
					<dim>160</dim>
					<dim>1</dim>
					<dim>1</dim>
				</port>
			</input>
			<output>
				<port id="2" precision="FP32" names="/backbone/stage5/unit1/conv3/conv/Conv_output_0">
					<dim>-1</dim>
					<dim>160</dim>
					<dim>23</dim>
					<dim>31</dim>
				</port>
			</output>
		</layer>
		<layer id="224" name="onnx::Conv_2419" type="Const" version="opset1">
			<data element_type="f32" shape="960, 160, 1, 1" offset="2791216" size="614400" />
			<output>
				<port id="0" precision="FP32" names="onnx::Conv_2419">
					<dim>960</dim>
					<dim>160</dim>
					<dim>1</dim>
					<dim>1</dim>
				</port>
			</output>
		</layer>
		<layer id="225" name="/backbone/stage5/unit2/conv1/conv/Conv/WithoutBiases" type="Convolution" version="opset1">
			<data strides="1, 1" dilations="1, 1" pads_begin="0, 0" pads_end="0, 0" auto_pad="explicit" />
			<input>
				<port id="0" precision="FP32">
					<dim>-1</dim>
					<dim>160</dim>
					<dim>23</dim>
					<dim>31</dim>
				</port>
				<port id="1" precision="FP32">
					<dim>960</dim>
					<dim>160</dim>
					<dim>1</dim>
					<dim>1</dim>
				</port>
			</input>
			<output>
				<port id="2" precision="FP32">
					<dim>-1</dim>
					<dim>960</dim>
					<dim>23</dim>
					<dim>31</dim>
				</port>
			</output>
		</layer>
		<layer id="226" name="Reshape_1648" type="Const" version="opset1">
			<data element_type="f32" shape="1, 960, 1, 1" offset="3405616" size="3840" />
			<output>
				<port id="0" precision="FP32">
					<dim>1</dim>
					<dim>960</dim>
					<dim>1</dim>
					<dim>1</dim>
				</port>
			</output>
		</layer>
		<layer id="227" name="/backbone/stage5/unit2/conv1/conv/Conv" type="Add" version="opset1">
			<data auto_broadcast="numpy" />
			<input>
				<port id="0" precision="FP32">
					<dim>-1</dim>
					<dim>960</dim>
					<dim>23</dim>
					<dim>31</dim>
				</port>
				<port id="1" precision="FP32">
					<dim>1</dim>
					<dim>960</dim>
					<dim>1</dim>
					<dim>1</dim>
				</port>
			</input>
			<output>
				<port id="2" precision="FP32" names="/backbone/stage5/unit2/conv1/conv/Conv_output_0">
					<dim>-1</dim>
					<dim>960</dim>
					<dim>23</dim>
					<dim>31</dim>
				</port>
			</output>
		</layer>
		<layer id="228" name="/backbone/stage5/unit2/conv1/activ/Clip" type="Clamp" version="opset1">
			<data min="0" max="6" />
			<input>
				<port id="0" precision="FP32">
					<dim>-1</dim>
					<dim>960</dim>
					<dim>23</dim>
					<dim>31</dim>
				</port>
			</input>
			<output>
				<port id="1" precision="FP32" names="/backbone/stage5/unit2/conv1/activ/Clip_output_0">
					<dim>-1</dim>
					<dim>960</dim>
					<dim>23</dim>
					<dim>31</dim>
				</port>
			</output>
		</layer>
		<layer id="229" name="Reshape_1663" type="Const" version="opset1">
			<data element_type="f32" shape="960, 1, 1, 3, 3" offset="3409456" size="34560" />
			<output>
				<port id="0" precision="FP32">
					<dim>960</dim>
					<dim>1</dim>
					<dim>1</dim>
					<dim>3</dim>
					<dim>3</dim>
				</port>
			</output>
		</layer>
		<layer id="230" name="/backbone/stage5/unit2/conv2/conv/Conv/WithoutBiases" type="GroupConvolution" version="opset1">
			<data strides="1, 1" pads_begin="1, 1" pads_end="1, 1" dilations="1, 1" auto_pad="explicit" />
			<input>
				<port id="0" precision="FP32">
					<dim>-1</dim>
					<dim>960</dim>
					<dim>23</dim>
					<dim>31</dim>
				</port>
				<port id="1" precision="FP32">
					<dim>960</dim>
					<dim>1</dim>
					<dim>1</dim>
					<dim>3</dim>
					<dim>3</dim>
				</port>
			</input>
			<output>
				<port id="2" precision="FP32">
					<dim>-1</dim>
					<dim>960</dim>
					<dim>23</dim>
					<dim>31</dim>
				</port>
			</output>
		</layer>
		<layer id="231" name="Reshape_1715" type="Const" version="opset1">
			<data element_type="f32" shape="1, 960, 1, 1" offset="3444016" size="3840" />
			<output>
				<port id="0" precision="FP32">
					<dim>1</dim>
					<dim>960</dim>
					<dim>1</dim>
					<dim>1</dim>
				</port>
			</output>
		</layer>
		<layer id="232" name="/backbone/stage5/unit2/conv2/conv/Conv" type="Add" version="opset1">
			<data auto_broadcast="numpy" />
			<input>
				<port id="0" precision="FP32">
					<dim>-1</dim>
					<dim>960</dim>
					<dim>23</dim>
					<dim>31</dim>
				</port>
				<port id="1" precision="FP32">
					<dim>1</dim>
					<dim>960</dim>
					<dim>1</dim>
					<dim>1</dim>
				</port>
			</input>
			<output>
				<port id="2" precision="FP32" names="/backbone/stage5/unit2/conv2/conv/Conv_output_0">
					<dim>-1</dim>
					<dim>960</dim>
					<dim>23</dim>
					<dim>31</dim>
				</port>
			</output>
		</layer>
		<layer id="233" name="/backbone/stage5/unit2/conv2/activ/Clip" type="Clamp" version="opset1">
			<data min="0" max="6" />
			<input>
				<port id="0" precision="FP32">
					<dim>-1</dim>
					<dim>960</dim>
					<dim>23</dim>
					<dim>31</dim>
				</port>
			</input>
			<output>
				<port id="1" precision="FP32" names="/backbone/stage5/unit2/conv2/activ/Clip_output_0">
					<dim>-1</dim>
					<dim>960</dim>
					<dim>23</dim>
					<dim>31</dim>
				</port>
			</output>
		</layer>
		<layer id="234" name="onnx::Conv_2425" type="Const" version="opset1">
			<data element_type="f32" shape="160, 960, 1, 1" offset="3447856" size="614400" />
			<output>
				<port id="0" precision="FP32" names="onnx::Conv_2425">
					<dim>160</dim>
					<dim>960</dim>
					<dim>1</dim>
					<dim>1</dim>
				</port>
			</output>
		</layer>
		<layer id="235" name="/backbone/stage5/unit2/conv3/conv/Conv/WithoutBiases" type="Convolution" version="opset1">
			<data strides="1, 1" dilations="1, 1" pads_begin="0, 0" pads_end="0, 0" auto_pad="explicit" />
			<input>
				<port id="0" precision="FP32">
					<dim>-1</dim>
					<dim>960</dim>
					<dim>23</dim>
					<dim>31</dim>
				</port>
				<port id="1" precision="FP32">
					<dim>160</dim>
					<dim>960</dim>
					<dim>1</dim>
					<dim>1</dim>
				</port>
			</input>
			<output>
				<port id="2" precision="FP32">
					<dim>-1</dim>
					<dim>160</dim>
					<dim>23</dim>
					<dim>31</dim>
				</port>
			</output>
		</layer>
		<layer id="236" name="Reshape_1735" type="Const" version="opset1">
			<data element_type="f32" shape="1, 160, 1, 1" offset="4062256" size="640" />
			<output>
				<port id="0" precision="FP32">
					<dim>1</dim>
					<dim>160</dim>
					<dim>1</dim>
					<dim>1</dim>
				</port>
			</output>
		</layer>
		<layer id="237" name="/backbone/stage5/unit2/conv3/conv/Conv" type="Add" version="opset1">
			<data auto_broadcast="numpy" />
			<input>
				<port id="0" precision="FP32">
					<dim>-1</dim>
					<dim>160</dim>
					<dim>23</dim>
					<dim>31</dim>
				</port>
				<port id="1" precision="FP32">
					<dim>1</dim>
					<dim>160</dim>
					<dim>1</dim>
					<dim>1</dim>
				</port>
			</input>
			<output>
				<port id="2" precision="FP32" names="/backbone/stage5/unit2/conv3/conv/Conv_output_0">
					<dim>-1</dim>
					<dim>160</dim>
					<dim>23</dim>
					<dim>31</dim>
				</port>
			</output>
		</layer>
		<layer id="238" name="/backbone/stage5/unit2/Add" type="Add" version="opset1">
			<data auto_broadcast="numpy" />
			<input>
				<port id="0" precision="FP32">
					<dim>-1</dim>
					<dim>160</dim>
					<dim>23</dim>
					<dim>31</dim>
				</port>
				<port id="1" precision="FP32">
					<dim>-1</dim>
					<dim>160</dim>
					<dim>23</dim>
					<dim>31</dim>
				</port>
			</input>
			<output>
				<port id="2" precision="FP32" names="/backbone/stage5/unit2/Add_output_0">
					<dim>-1</dim>
					<dim>160</dim>
					<dim>23</dim>
					<dim>31</dim>
				</port>
			</output>
		</layer>
		<layer id="239" name="onnx::Conv_2428" type="Const" version="opset1">
			<data element_type="f32" shape="960, 160, 1, 1" offset="4062896" size="614400" />
			<output>
				<port id="0" precision="FP32" names="onnx::Conv_2428">
					<dim>960</dim>
					<dim>160</dim>
					<dim>1</dim>
					<dim>1</dim>
				</port>
			</output>
		</layer>
		<layer id="240" name="/backbone/stage5/unit3/conv1/conv/Conv/WithoutBiases" type="Convolution" version="opset1">
			<data strides="1, 1" dilations="1, 1" pads_begin="0, 0" pads_end="0, 0" auto_pad="explicit" />
			<input>
				<port id="0" precision="FP32">
					<dim>-1</dim>
					<dim>160</dim>
					<dim>23</dim>
					<dim>31</dim>
				</port>
				<port id="1" precision="FP32">
					<dim>960</dim>
					<dim>160</dim>
					<dim>1</dim>
					<dim>1</dim>
				</port>
			</input>
			<output>
				<port id="2" precision="FP32">
					<dim>-1</dim>
					<dim>960</dim>
					<dim>23</dim>
					<dim>31</dim>
				</port>
			</output>
		</layer>
		<layer id="241" name="Reshape_1752" type="Const" version="opset1">
			<data element_type="f32" shape="1, 960, 1, 1" offset="4677296" size="3840" />
			<output>
				<port id="0" precision="FP32">
					<dim>1</dim>
					<dim>960</dim>
					<dim>1</dim>
					<dim>1</dim>
				</port>
			</output>
		</layer>
		<layer id="242" name="/backbone/stage5/unit3/conv1/conv/Conv" type="Add" version="opset1">
			<data auto_broadcast="numpy" />
			<input>
				<port id="0" precision="FP32">
					<dim>-1</dim>
					<dim>960</dim>
					<dim>23</dim>
					<dim>31</dim>
				</port>
				<port id="1" precision="FP32">
					<dim>1</dim>
					<dim>960</dim>
					<dim>1</dim>
					<dim>1</dim>
				</port>
			</input>
			<output>
				<port id="2" precision="FP32" names="/backbone/stage5/unit3/conv1/conv/Conv_output_0">
					<dim>-1</dim>
					<dim>960</dim>
					<dim>23</dim>
					<dim>31</dim>
				</port>
			</output>
		</layer>
		<layer id="243" name="/backbone/stage5/unit3/conv1/activ/Clip" type="Clamp" version="opset1">
			<data min="0" max="6" />
			<input>
				<port id="0" precision="FP32">
					<dim>-1</dim>
					<dim>960</dim>
					<dim>23</dim>
					<dim>31</dim>
				</port>
			</input>
			<output>
				<port id="1" precision="FP32" names="/backbone/stage5/unit3/conv1/activ/Clip_output_0">
					<dim>-1</dim>
					<dim>960</dim>
					<dim>23</dim>
					<dim>31</dim>
				</port>
			</output>
		</layer>
		<layer id="244" name="Reshape_1767" type="Const" version="opset1">
			<data element_type="f32" shape="960, 1, 1, 3, 3" offset="4681136" size="34560" />
			<output>
				<port id="0" precision="FP32">
					<dim>960</dim>
					<dim>1</dim>
					<dim>1</dim>
					<dim>3</dim>
					<dim>3</dim>
				</port>
			</output>
		</layer>
		<layer id="245" name="/backbone/stage5/unit3/conv2/conv/Conv/WithoutBiases" type="GroupConvolution" version="opset1">
			<data strides="1, 1" pads_begin="1, 1" pads_end="1, 1" dilations="1, 1" auto_pad="explicit" />
			<input>
				<port id="0" precision="FP32">
					<dim>-1</dim>
					<dim>960</dim>
					<dim>23</dim>
					<dim>31</dim>
				</port>
				<port id="1" precision="FP32">
					<dim>960</dim>
					<dim>1</dim>
					<dim>1</dim>
					<dim>3</dim>
					<dim>3</dim>
				</port>
			</input>
			<output>
				<port id="2" precision="FP32">
					<dim>-1</dim>
					<dim>960</dim>
					<dim>23</dim>
					<dim>31</dim>
				</port>
			</output>
		</layer>
		<layer id="246" name="Reshape_1819" type="Const" version="opset1">
			<data element_type="f32" shape="1, 960, 1, 1" offset="4715696" size="3840" />
			<output>
				<port id="0" precision="FP32">
					<dim>1</dim>
					<dim>960</dim>
					<dim>1</dim>
					<dim>1</dim>
				</port>
			</output>
		</layer>
		<layer id="247" name="/backbone/stage5/unit3/conv2/conv/Conv" type="Add" version="opset1">
			<data auto_broadcast="numpy" />
			<input>
				<port id="0" precision="FP32">
					<dim>-1</dim>
					<dim>960</dim>
					<dim>23</dim>
					<dim>31</dim>
				</port>
				<port id="1" precision="FP32">
					<dim>1</dim>
					<dim>960</dim>
					<dim>1</dim>
					<dim>1</dim>
				</port>
			</input>
			<output>
				<port id="2" precision="FP32" names="/backbone/stage5/unit3/conv2/conv/Conv_output_0">
					<dim>-1</dim>
					<dim>960</dim>
					<dim>23</dim>
					<dim>31</dim>
				</port>
			</output>
		</layer>
		<layer id="248" name="/backbone/stage5/unit3/conv2/activ/Clip" type="Clamp" version="opset1">
			<data min="0" max="6" />
			<input>
				<port id="0" precision="FP32">
					<dim>-1</dim>
					<dim>960</dim>
					<dim>23</dim>
					<dim>31</dim>
				</port>
			</input>
			<output>
				<port id="1" precision="FP32" names="/backbone/stage5/unit3/conv2/activ/Clip_output_0">
					<dim>-1</dim>
					<dim>960</dim>
					<dim>23</dim>
					<dim>31</dim>
				</port>
			</output>
		</layer>
		<layer id="249" name="onnx::Conv_2434" type="Const" version="opset1">
			<data element_type="f32" shape="160, 960, 1, 1" offset="4719536" size="614400" />
			<output>
				<port id="0" precision="FP32" names="onnx::Conv_2434">
					<dim>160</dim>
					<dim>960</dim>
					<dim>1</dim>
					<dim>1</dim>
				</port>
			</output>
		</layer>
		<layer id="250" name="/backbone/stage5/unit3/conv3/conv/Conv/WithoutBiases" type="Convolution" version="opset1">
			<data strides="1, 1" dilations="1, 1" pads_begin="0, 0" pads_end="0, 0" auto_pad="explicit" />
			<input>
				<port id="0" precision="FP32">
					<dim>-1</dim>
					<dim>960</dim>
					<dim>23</dim>
					<dim>31</dim>
				</port>
				<port id="1" precision="FP32">
					<dim>160</dim>
					<dim>960</dim>
					<dim>1</dim>
					<dim>1</dim>
				</port>
			</input>
			<output>
				<port id="2" precision="FP32">
					<dim>-1</dim>
					<dim>160</dim>
					<dim>23</dim>
					<dim>31</dim>
				</port>
			</output>
		</layer>
		<layer id="251" name="Reshape_1839" type="Const" version="opset1">
			<data element_type="f32" shape="1, 160, 1, 1" offset="5333936" size="640" />
			<output>
				<port id="0" precision="FP32">
					<dim>1</dim>
					<dim>160</dim>
					<dim>1</dim>
					<dim>1</dim>
				</port>
			</output>
		</layer>
		<layer id="252" name="/backbone/stage5/unit3/conv3/conv/Conv" type="Add" version="opset1">
			<data auto_broadcast="numpy" />
			<input>
				<port id="0" precision="FP32">
					<dim>-1</dim>
					<dim>160</dim>
					<dim>23</dim>
					<dim>31</dim>
				</port>
				<port id="1" precision="FP32">
					<dim>1</dim>
					<dim>160</dim>
					<dim>1</dim>
					<dim>1</dim>
				</port>
			</input>
			<output>
				<port id="2" precision="FP32" names="/backbone/stage5/unit3/conv3/conv/Conv_output_0">
					<dim>-1</dim>
					<dim>160</dim>
					<dim>23</dim>
					<dim>31</dim>
				</port>
			</output>
		</layer>
		<layer id="253" name="/backbone/stage5/unit3/Add" type="Add" version="opset1">
			<data auto_broadcast="numpy" />
			<input>
				<port id="0" precision="FP32">
					<dim>-1</dim>
					<dim>160</dim>
					<dim>23</dim>
					<dim>31</dim>
				</port>
				<port id="1" precision="FP32">
					<dim>-1</dim>
					<dim>160</dim>
					<dim>23</dim>
					<dim>31</dim>
				</port>
			</input>
			<output>
				<port id="2" precision="FP32" names="/backbone/stage5/unit3/Add_output_0">
					<dim>-1</dim>
					<dim>160</dim>
					<dim>23</dim>
					<dim>31</dim>
				</port>
			</output>
		</layer>
		<layer id="254" name="onnx::Conv_2437" type="Const" version="opset1">
			<data element_type="f32" shape="960, 160, 1, 1" offset="5334576" size="614400" />
			<output>
				<port id="0" precision="FP32" names="onnx::Conv_2437">
					<dim>960</dim>
					<dim>160</dim>
					<dim>1</dim>
					<dim>1</dim>
				</port>
			</output>
		</layer>
		<layer id="255" name="/backbone/stage5/unit4/conv1/conv/Conv/WithoutBiases" type="Convolution" version="opset1">
			<data strides="1, 1" dilations="1, 1" pads_begin="0, 0" pads_end="0, 0" auto_pad="explicit" />
			<input>
				<port id="0" precision="FP32">
					<dim>-1</dim>
					<dim>160</dim>
					<dim>23</dim>
					<dim>31</dim>
				</port>
				<port id="1" precision="FP32">
					<dim>960</dim>
					<dim>160</dim>
					<dim>1</dim>
					<dim>1</dim>
				</port>
			</input>
			<output>
				<port id="2" precision="FP32">
					<dim>-1</dim>
					<dim>960</dim>
					<dim>23</dim>
					<dim>31</dim>
				</port>
			</output>
		</layer>
		<layer id="256" name="Reshape_1856" type="Const" version="opset1">
			<data element_type="f32" shape="1, 960, 1, 1" offset="5948976" size="3840" />
			<output>
				<port id="0" precision="FP32">
					<dim>1</dim>
					<dim>960</dim>
					<dim>1</dim>
					<dim>1</dim>
				</port>
			</output>
		</layer>
		<layer id="257" name="/backbone/stage5/unit4/conv1/conv/Conv" type="Add" version="opset1">
			<data auto_broadcast="numpy" />
			<input>
				<port id="0" precision="FP32">
					<dim>-1</dim>
					<dim>960</dim>
					<dim>23</dim>
					<dim>31</dim>
				</port>
				<port id="1" precision="FP32">
					<dim>1</dim>
					<dim>960</dim>
					<dim>1</dim>
					<dim>1</dim>
				</port>
			</input>
			<output>
				<port id="2" precision="FP32" names="/backbone/stage5/unit4/conv1/conv/Conv_output_0">
					<dim>-1</dim>
					<dim>960</dim>
					<dim>23</dim>
					<dim>31</dim>
				</port>
			</output>
		</layer>
		<layer id="258" name="/backbone/stage5/unit4/conv1/activ/Clip" type="Clamp" version="opset1">
			<data min="0" max="6" />
			<input>
				<port id="0" precision="FP32">
					<dim>-1</dim>
					<dim>960</dim>
					<dim>23</dim>
					<dim>31</dim>
				</port>
			</input>
			<output>
				<port id="1" precision="FP32" names="/backbone/stage5/unit4/conv1/activ/Clip_output_0">
					<dim>-1</dim>
					<dim>960</dim>
					<dim>23</dim>
					<dim>31</dim>
				</port>
			</output>
		</layer>
		<layer id="259" name="Reshape_1871" type="Const" version="opset1">
			<data element_type="f32" shape="960, 1, 1, 3, 3" offset="5952816" size="34560" />
			<output>
				<port id="0" precision="FP32">
					<dim>960</dim>
					<dim>1</dim>
					<dim>1</dim>
					<dim>3</dim>
					<dim>3</dim>
				</port>
			</output>
		</layer>
		<layer id="260" name="/backbone/stage5/unit4/conv2/conv/Conv/WithoutBiases" type="GroupConvolution" version="opset1">
			<data strides="1, 1" pads_begin="1, 1" pads_end="1, 1" dilations="1, 1" auto_pad="explicit" />
			<input>
				<port id="0" precision="FP32">
					<dim>-1</dim>
					<dim>960</dim>
					<dim>23</dim>
					<dim>31</dim>
				</port>
				<port id="1" precision="FP32">
					<dim>960</dim>
					<dim>1</dim>
					<dim>1</dim>
					<dim>3</dim>
					<dim>3</dim>
				</port>
			</input>
			<output>
				<port id="2" precision="FP32">
					<dim>-1</dim>
					<dim>960</dim>
					<dim>23</dim>
					<dim>31</dim>
				</port>
			</output>
		</layer>
		<layer id="261" name="Reshape_1923" type="Const" version="opset1">
			<data element_type="f32" shape="1, 960, 1, 1" offset="5987376" size="3840" />
			<output>
				<port id="0" precision="FP32">
					<dim>1</dim>
					<dim>960</dim>
					<dim>1</dim>
					<dim>1</dim>
				</port>
			</output>
		</layer>
		<layer id="262" name="/backbone/stage5/unit4/conv2/conv/Conv" type="Add" version="opset1">
			<data auto_broadcast="numpy" />
			<input>
				<port id="0" precision="FP32">
					<dim>-1</dim>
					<dim>960</dim>
					<dim>23</dim>
					<dim>31</dim>
				</port>
				<port id="1" precision="FP32">
					<dim>1</dim>
					<dim>960</dim>
					<dim>1</dim>
					<dim>1</dim>
				</port>
			</input>
			<output>
				<port id="2" precision="FP32" names="/backbone/stage5/unit4/conv2/conv/Conv_output_0">
					<dim>-1</dim>
					<dim>960</dim>
					<dim>23</dim>
					<dim>31</dim>
				</port>
			</output>
		</layer>
		<layer id="263" name="/backbone/stage5/unit4/conv2/activ/Clip" type="Clamp" version="opset1">
			<data min="0" max="6" />
			<input>
				<port id="0" precision="FP32">
					<dim>-1</dim>
					<dim>960</dim>
					<dim>23</dim>
					<dim>31</dim>
				</port>
			</input>
			<output>
				<port id="1" precision="FP32" names="/backbone/stage5/unit4/conv2/activ/Clip_output_0">
					<dim>-1</dim>
					<dim>960</dim>
					<dim>23</dim>
					<dim>31</dim>
				</port>
			</output>
		</layer>
		<layer id="264" name="onnx::Conv_2443" type="Const" version="opset1">
			<data element_type="f32" shape="320, 960, 1, 1" offset="5991216" size="1228800" />
			<output>
				<port id="0" precision="FP32" names="onnx::Conv_2443">
					<dim>320</dim>
					<dim>960</dim>
					<dim>1</dim>
					<dim>1</dim>
				</port>
			</output>
		</layer>
		<layer id="265" name="/backbone/stage5/unit4/conv3/conv/Conv/WithoutBiases" type="Convolution" version="opset1">
			<data strides="1, 1" dilations="1, 1" pads_begin="0, 0" pads_end="0, 0" auto_pad="explicit" />
			<input>
				<port id="0" precision="FP32">
					<dim>-1</dim>
					<dim>960</dim>
					<dim>23</dim>
					<dim>31</dim>
				</port>
				<port id="1" precision="FP32">
					<dim>320</dim>
					<dim>960</dim>
					<dim>1</dim>
					<dim>1</dim>
				</port>
			</input>
			<output>
				<port id="2" precision="FP32">
					<dim>-1</dim>
					<dim>320</dim>
					<dim>23</dim>
					<dim>31</dim>
				</port>
			</output>
		</layer>
		<layer id="266" name="Reshape_1943" type="Const" version="opset1">
			<data element_type="f32" shape="1, 320, 1, 1" offset="7220016" size="1280" />
			<output>
				<port id="0" precision="FP32">
					<dim>1</dim>
					<dim>320</dim>
					<dim>1</dim>
					<dim>1</dim>
				</port>
			</output>
		</layer>
		<layer id="267" name="/backbone/stage5/unit4/conv3/conv/Conv" type="Add" version="opset1">
			<data auto_broadcast="numpy" />
			<input>
				<port id="0" precision="FP32">
					<dim>-1</dim>
					<dim>320</dim>
					<dim>23</dim>
					<dim>31</dim>
				</port>
				<port id="1" precision="FP32">
					<dim>1</dim>
					<dim>320</dim>
					<dim>1</dim>
					<dim>1</dim>
				</port>
			</input>
			<output>
				<port id="2" precision="FP32" names="/backbone/stage5/unit4/conv3/conv/Conv_output_0">
					<dim>-1</dim>
					<dim>320</dim>
					<dim>23</dim>
					<dim>31</dim>
				</port>
			</output>
		</layer>
		<layer id="268" name="neck.lateral_convs.2.conv.weight" type="Const" version="opset1">
			<data element_type="f32" shape="64, 320, 1, 1" offset="7221296" size="81920" />
			<output>
				<port id="0" precision="FP32" names="neck.lateral_convs.2.conv.weight">
					<dim>64</dim>
					<dim>320</dim>
					<dim>1</dim>
					<dim>1</dim>
				</port>
			</output>
		</layer>
		<layer id="269" name="/neck/lateral_convs.2/conv/Conv/WithoutBiases" type="Convolution" version="opset1">
			<data strides="1, 1" dilations="1, 1" pads_begin="0, 0" pads_end="0, 0" auto_pad="explicit" />
			<input>
				<port id="0" precision="FP32">
					<dim>-1</dim>
					<dim>320</dim>
					<dim>23</dim>
					<dim>31</dim>
				</port>
				<port id="1" precision="FP32">
					<dim>64</dim>
					<dim>320</dim>
					<dim>1</dim>
					<dim>1</dim>
				</port>
			</input>
			<output>
				<port id="2" precision="FP32">
					<dim>-1</dim>
					<dim>64</dim>
					<dim>23</dim>
					<dim>31</dim>
				</port>
			</output>
		</layer>
		<layer id="270" name="Reshape_1991" type="Const" version="opset1">
			<data element_type="f32" shape="1, 64, 1, 1" offset="7303216" size="256" />
			<output>
				<port id="0" precision="FP32">
					<dim>1</dim>
					<dim>64</dim>
					<dim>1</dim>
					<dim>1</dim>
				</port>
			</output>
		</layer>
		<layer id="271" name="/neck/lateral_convs.2/conv/Conv" type="Add" version="opset1">
			<data auto_broadcast="numpy" />
			<input>
				<port id="0" precision="FP32">
					<dim>-1</dim>
					<dim>64</dim>
					<dim>23</dim>
					<dim>31</dim>
				</port>
				<port id="1" precision="FP32">
					<dim>1</dim>
					<dim>64</dim>
					<dim>1</dim>
					<dim>1</dim>
				</port>
			</input>
			<output>
				<port id="2" precision="FP32" names="/neck/lateral_convs.2/conv/Conv_output_0">
					<dim>-1</dim>
					<dim>64</dim>
					<dim>23</dim>
					<dim>31</dim>
				</port>
			</output>
		</layer>
		<layer id="272" name="/neck/Shape_2" type="ShapeOf" version="opset3">
			<data output_type="i64" />
			<input>
				<port id="0" precision="FP32">
					<dim>-1</dim>
					<dim>64</dim>
					<dim>23</dim>
					<dim>31</dim>
				</port>
			</input>
			<output>
				<port id="1" precision="I64" names="/neck/Shape_2_output_0">
					<dim>4</dim>
				</port>
			</output>
		</layer>
		<layer id="273" name="/neck/Constant_3" type="Const" version="opset1">
			<data element_type="i64" shape="1" offset="16" size="8" />
			<output>
				<port id="0" precision="I64" names="/neck/Constant_3_output_0">
					<dim>1</dim>
				</port>
			</output>
		</layer>
		<layer id="274" name="/neck/Constant_4" type="Const" version="opset1">
			<data element_type="i64" shape="1" offset="7303472" size="8" />
			<output>
				<port id="0" precision="I64" names="/neck/Constant_4_output_0">
					<dim>1</dim>
				</port>
			</output>
		</layer>
		<layer id="275" name="Broadcast_2014" type="Const" version="opset1">
			<data element_type="i64" shape="1" offset="7303480" size="8" />
			<output>
				<port id="0" precision="I64">
					<dim>1</dim>
				</port>
			</output>
		</layer>
		<layer id="276" name="/neck/Slice" type="StridedSlice" version="opset1">
			<data begin_mask="0" end_mask="0" new_axis_mask="" shrink_axis_mask="" ellipsis_mask="" />
			<input>
				<port id="0" precision="I64">
					<dim>4</dim>
				</port>
				<port id="1" precision="I64">
					<dim>1</dim>
				</port>
				<port id="2" precision="I64">
					<dim>1</dim>
				</port>
				<port id="3" precision="I64">
					<dim>1</dim>
				</port>
			</input>
			<output>
				<port id="4" precision="I64" names="/neck/Slice_output_0">
					<dim>2</dim>
				</port>
			</output>
		</layer>
		<layer id="277" name="/neck/Shape" type="ShapeOf" version="opset3">
			<data output_type="i64" />
			<input>
				<port id="0" precision="FP32">
					<dim>-1</dim>
					<dim>64</dim>
					<dim>46</dim>
					<dim>62</dim>
				</port>
			</input>
			<output>
				<port id="1" precision="I64" names="/neck/Shape_1_output_0,/neck/Shape_output_0">
					<dim>4</dim>
				</port>
			</output>
		</layer>
		<layer id="278" name="Constant_38163" type="Const" version="opset1">
			<data element_type="i64" shape="2" offset="7303488" size="16" />
			<output>
				<port id="0" precision="I64">
					<dim>2</dim>
				</port>
			</output>
		</layer>
		<layer id="279" name="Constant_38164" type="Const" version="opset1">
			<data element_type="i64" shape="" offset="16" size="8" />
			<output>
				<port id="0" precision="I64" />
			</output>
		</layer>
		<layer id="280" name="Gather_38165" type="Gather" version="opset8">
			<data batch_dims="0" />
			<input>
				<port id="0" precision="I64">
					<dim>4</dim>
				</port>
				<port id="1" precision="I64">
					<dim>2</dim>
				</port>
				<port id="2" precision="I64" />
			</input>
			<output>
				<port id="3" precision="I64" names="/neck/Cast_output_0,/neck/Concat_output_0">
					<dim>2</dim>
				</port>
			</output>
		</layer>
		<layer id="281" name="/neck/Concat_1" type="Concat" version="opset1">
			<data axis="0" />
			<input>
				<port id="0" precision="I64">
					<dim>2</dim>
				</port>
				<port id="1" precision="I64">
					<dim>2</dim>
				</port>
			</input>
			<output>
				<port id="2" precision="I64" names="/neck/Concat_1_output_0">
					<dim>4</dim>
				</port>
			</output>
		</layer>
		<layer id="282" name="/neck/Resize" type="Interpolate" version="opset11">
			<data mode="nearest" shape_calculation_mode="sizes" coordinate_transformation_mode="asymmetric" nearest_mode="floor" antialias="false" pads_begin="0, 0, 0, 0" pads_end="0, 0, 0, 0" cube_coeff="-0.75" />
			<input>
				<port id="0" precision="FP32">
					<dim>-1</dim>
					<dim>64</dim>
					<dim>23</dim>
					<dim>31</dim>
				</port>
				<port id="1" precision="I64">
					<dim>4</dim>
				</port>
			</input>
			<output>
				<port id="2" precision="FP32" names="/neck/Resize_output_0">
					<dim>-1</dim>
					<dim>64</dim>
					<dim>46</dim>
					<dim>62</dim>
				</port>
			</output>
		</layer>
		<layer id="283" name="/neck/Add" type="Add" version="opset1">
			<data auto_broadcast="numpy" />
			<input>
				<port id="0" precision="FP32">
					<dim>-1</dim>
					<dim>64</dim>
					<dim>46</dim>
					<dim>62</dim>
				</port>
				<port id="1" precision="FP32">
					<dim>-1</dim>
					<dim>64</dim>
					<dim>46</dim>
					<dim>62</dim>
				</port>
			</input>
			<output>
				<port id="2" precision="FP32" names="/neck/Add_output_0">
					<dim>-1</dim>
					<dim>64</dim>
					<dim>46</dim>
					<dim>62</dim>
				</port>
			</output>
		</layer>
		<layer id="284" name="/neck/Shape_5" type="ShapeOf" version="opset3">
			<data output_type="i64" />
			<input>
				<port id="0" precision="FP32">
					<dim>-1</dim>
					<dim>64</dim>
					<dim>46</dim>
					<dim>62</dim>
				</port>
			</input>
			<output>
				<port id="1" precision="I64" names="/neck/Shape_5_output_0">
					<dim>4</dim>
				</port>
			</output>
		</layer>
		<layer id="285" name="/neck/Constant_10" type="Const" version="opset1">
			<data element_type="i64" shape="1" offset="16" size="8" />
			<output>
				<port id="0" precision="I64" names="/neck/Constant_10_output_0">
					<dim>1</dim>
				</port>
			</output>
		</layer>
		<layer id="286" name="/neck/Constant_11" type="Const" version="opset1">
			<data element_type="i64" shape="1" offset="7303472" size="8" />
			<output>
				<port id="0" precision="I64" names="/neck/Constant_11_output_0">
					<dim>1</dim>
				</port>
			</output>
		</layer>
		<layer id="287" name="Broadcast_2056" type="Const" version="opset1">
			<data element_type="i64" shape="1" offset="7303480" size="8" />
			<output>
				<port id="0" precision="I64">
					<dim>1</dim>
				</port>
			</output>
		</layer>
		<layer id="288" name="/neck/Slice_1" type="StridedSlice" version="opset1">
			<data begin_mask="0" end_mask="0" new_axis_mask="" shrink_axis_mask="" ellipsis_mask="" />
			<input>
				<port id="0" precision="I64">
					<dim>4</dim>
				</port>
				<port id="1" precision="I64">
					<dim>1</dim>
				</port>
				<port id="2" precision="I64">
					<dim>1</dim>
				</port>
				<port id="3" precision="I64">
					<dim>1</dim>
				</port>
			</input>
			<output>
				<port id="4" precision="I64" names="/neck/Slice_1_output_0">
					<dim>2</dim>
				</port>
			</output>
		</layer>
		<layer id="289" name="/neck/Shape_3" type="ShapeOf" version="opset3">
			<data output_type="i64" />
			<input>
				<port id="0" precision="FP32">
					<dim>-1</dim>
					<dim>64</dim>
					<dim>92</dim>
					<dim>124</dim>
				</port>
			</input>
			<output>
				<port id="1" precision="I64" names="/neck/Shape_3_output_0,/neck/Shape_4_output_0">
					<dim>4</dim>
				</port>
			</output>
		</layer>
		<layer id="290" name="Constant_38167" type="Const" version="opset1">
			<data element_type="i64" shape="2" offset="7303488" size="16" />
			<output>
				<port id="0" precision="I64">
					<dim>2</dim>
				</port>
			</output>
		</layer>
		<layer id="291" name="Constant_38168" type="Const" version="opset1">
			<data element_type="i64" shape="" offset="16" size="8" />
			<output>
				<port id="0" precision="I64" />
			</output>
		</layer>
		<layer id="292" name="Gather_38169" type="Gather" version="opset8">
			<data batch_dims="0" />
			<input>
				<port id="0" precision="I64">
					<dim>4</dim>
				</port>
				<port id="1" precision="I64">
					<dim>2</dim>
				</port>
				<port id="2" precision="I64" />
			</input>
			<output>
				<port id="3" precision="I64" names="/neck/Cast_1_output_0,/neck/Concat_2_output_0">
					<dim>2</dim>
				</port>
			</output>
		</layer>
		<layer id="293" name="/neck/Concat_3" type="Concat" version="opset1">
			<data axis="0" />
			<input>
				<port id="0" precision="I64">
					<dim>2</dim>
				</port>
				<port id="1" precision="I64">
					<dim>2</dim>
				</port>
			</input>
			<output>
				<port id="2" precision="I64" names="/neck/Concat_3_output_0">
					<dim>4</dim>
				</port>
			</output>
		</layer>
		<layer id="294" name="/neck/Resize_1" type="Interpolate" version="opset11">
			<data mode="nearest" shape_calculation_mode="sizes" coordinate_transformation_mode="asymmetric" nearest_mode="floor" antialias="false" pads_begin="0, 0, 0, 0" pads_end="0, 0, 0, 0" cube_coeff="-0.75" />
			<input>
				<port id="0" precision="FP32">
					<dim>-1</dim>
					<dim>64</dim>
					<dim>46</dim>
					<dim>62</dim>
				</port>
				<port id="1" precision="I64">
					<dim>4</dim>
				</port>
			</input>
			<output>
				<port id="2" precision="FP32" names="/neck/Resize_1_output_0">
					<dim>-1</dim>
					<dim>64</dim>
					<dim>92</dim>
					<dim>124</dim>
				</port>
			</output>
		</layer>
		<layer id="295" name="/neck/Add_1" type="Add" version="opset1">
			<data auto_broadcast="numpy" />
			<input>
				<port id="0" precision="FP32">
					<dim>-1</dim>
					<dim>64</dim>
					<dim>92</dim>
					<dim>124</dim>
				</port>
				<port id="1" precision="FP32">
					<dim>-1</dim>
					<dim>64</dim>
					<dim>92</dim>
					<dim>124</dim>
				</port>
			</input>
			<output>
				<port id="2" precision="FP32" names="/neck/Add_1_output_0">
					<dim>-1</dim>
					<dim>64</dim>
					<dim>92</dim>
					<dim>124</dim>
				</port>
			</output>
		</layer>
		<layer id="296" name="neck.fpn_convs.0.conv.weight" type="Const" version="opset1">
			<data element_type="f32" shape="64, 64, 3, 3" offset="7303504" size="147456" />
			<output>
				<port id="0" precision="FP32" names="neck.fpn_convs.0.conv.weight">
					<dim>64</dim>
					<dim>64</dim>
					<dim>3</dim>
					<dim>3</dim>
				</port>
			</output>
		</layer>
		<layer id="297" name="/neck/fpn_convs.0/conv/Conv/WithoutBiases" type="Convolution" version="opset1">
			<data strides="1, 1" dilations="1, 1" pads_begin="1, 1" pads_end="1, 1" auto_pad="explicit" />
			<input>
				<port id="0" precision="FP32">
					<dim>-1</dim>
					<dim>64</dim>
					<dim>92</dim>
					<dim>124</dim>
				</port>
				<port id="1" precision="FP32">
					<dim>64</dim>
					<dim>64</dim>
					<dim>3</dim>
					<dim>3</dim>
				</port>
			</input>
			<output>
				<port id="2" precision="FP32">
					<dim>-1</dim>
					<dim>64</dim>
					<dim>92</dim>
					<dim>124</dim>
				</port>
			</output>
		</layer>
		<layer id="298" name="Reshape_2091" type="Const" version="opset1">
			<data element_type="f32" shape="1, 64, 1, 1" offset="7450960" size="256" />
			<output>
				<port id="0" precision="FP32">
					<dim>1</dim>
					<dim>64</dim>
					<dim>1</dim>
					<dim>1</dim>
				</port>
			</output>
		</layer>
		<layer id="299" name="/neck/fpn_convs.0/conv/Conv" type="Add" version="opset1">
			<data auto_broadcast="numpy" />
			<input>
				<port id="0" precision="FP32">
					<dim>-1</dim>
					<dim>64</dim>
					<dim>92</dim>
					<dim>124</dim>
				</port>
				<port id="1" precision="FP32">
					<dim>1</dim>
					<dim>64</dim>
					<dim>1</dim>
					<dim>1</dim>
				</port>
			</input>
			<output>
				<port id="2" precision="FP32" names="/neck/fpn_convs.0/conv/Conv_output_0">
					<dim>-1</dim>
					<dim>64</dim>
					<dim>92</dim>
					<dim>124</dim>
				</port>
			</output>
		</layer>
		<layer id="300" name="bbox_head.cls_convs.0.conv.weight" type="Const" version="opset1">
			<data element_type="f32" shape="64, 64, 3, 3" offset="7451216" size="147456" />
			<output>
				<port id="0" precision="FP32" names="bbox_head.cls_convs.0.conv.weight">
					<dim>64</dim>
					<dim>64</dim>
					<dim>3</dim>
					<dim>3</dim>
				</port>
			</output>
		</layer>
		<layer id="301" name="/bbox_head/cls_convs.0/conv/Conv" type="Convolution" version="opset1">
			<data strides="1, 1" dilations="1, 1" pads_begin="1, 1" pads_end="1, 1" auto_pad="explicit" />
			<input>
				<port id="0" precision="FP32">
					<dim>-1</dim>
					<dim>64</dim>
					<dim>92</dim>
					<dim>124</dim>
				</port>
				<port id="1" precision="FP32">
					<dim>64</dim>
					<dim>64</dim>
					<dim>3</dim>
					<dim>3</dim>
				</port>
			</input>
			<output>
				<port id="2" precision="FP32" names="/bbox_head/cls_convs.0/conv/Conv_output_0">
					<dim>-1</dim>
					<dim>64</dim>
					<dim>92</dim>
					<dim>124</dim>
				</port>
			</output>
		</layer>
		<layer id="302" name="/bbox_head/cls_convs.0/gn/Constant" type="Const" version="opset1">
			<data element_type="i64" shape="3" offset="7598672" size="24" />
			<output>
				<port id="0" precision="I64" names="/bbox_head/cls_convs.0/gn/Constant_output_0">
					<dim>3</dim>
				</port>
			</output>
		</layer>
		<layer id="303" name="/bbox_head/cls_convs.0/gn/Reshape" type="Reshape" version="opset1">
			<data special_zero="true" />
			<input>
				<port id="0" precision="FP32">
					<dim>-1</dim>
					<dim>64</dim>
					<dim>92</dim>
					<dim>124</dim>
				</port>
				<port id="1" precision="I64">
					<dim>3</dim>
				</port>
			</input>
			<output>
				<port id="2" precision="FP32" names="/bbox_head/cls_convs.0/gn/Reshape_output_0">
					<dim>-1</dim>
					<dim>32</dim>
					<dim>22816</dim>
				</port>
			</output>
		</layer>
		<layer id="304" name="Constant_2166" type="Const" version="opset1">
			<data element_type="i64" shape="1" offset="7303472" size="8" />
			<output>
				<port id="0" precision="I64">
					<dim>1</dim>
				</port>
			</output>
		</layer>
		<layer id="305" name="MVN_2167" type="MVN" version="opset6">
			<data eps="9.9999997473787516e-06" normalize_variance="true" eps_mode="INSIDE_SQRT" />
			<input>
				<port id="0" precision="FP32">
					<dim>-1</dim>
					<dim>32</dim>
					<dim>22816</dim>
				</port>
				<port id="1" precision="I64">
					<dim>1</dim>
				</port>
			</input>
			<output>
				<port id="2" precision="FP32" names="/bbox_head/cls_convs.0/gn/InstanceNormalization_output_0">
					<dim>-1</dim>
					<dim>32</dim>
					<dim>22816</dim>
				</port>
			</output>
		</layer>
		<layer id="306" name="/bbox_head/cls_convs.0/gn/Shape" type="ShapeOf" version="opset3">
			<data output_type="i64" />
			<input>
				<port id="0" precision="FP32">
					<dim>-1</dim>
					<dim>64</dim>
					<dim>92</dim>
					<dim>124</dim>
				</port>
			</input>
			<output>
				<port id="1" precision="I64" names="/bbox_head/cls_convs.0/gn/Shape_output_0">
					<dim>4</dim>
				</port>
			</output>
		</layer>
		<layer id="307" name="/bbox_head/cls_convs.0/gn/Reshape_1" type="Reshape" version="opset1">
			<data special_zero="true" />
			<input>
				<port id="0" precision="FP32">
					<dim>-1</dim>
					<dim>32</dim>
					<dim>22816</dim>
				</port>
				<port id="1" precision="I64">
					<dim>4</dim>
				</port>
			</input>
			<output>
				<port id="2" precision="FP32" names="/bbox_head/cls_convs.0/gn/Reshape_1_output_0">
					<dim>-1</dim>
					<dim>64</dim>
					<dim>92</dim>
					<dim>124</dim>
				</port>
			</output>
		</layer>
		<layer id="308" name="Constant_43276" type="Const" version="opset1">
			<data element_type="f32" shape="1, 64, 1, 1" offset="7598696" size="256" />
			<output>
				<port id="0" precision="FP32">
					<dim>1</dim>
					<dim>64</dim>
					<dim>1</dim>
					<dim>1</dim>
				</port>
			</output>
		</layer>
		<layer id="309" name="/bbox_head/cls_convs.0/gn/Mul" type="Multiply" version="opset1">
			<data auto_broadcast="numpy" />
			<input>
				<port id="0" precision="FP32">
					<dim>-1</dim>
					<dim>64</dim>
					<dim>92</dim>
					<dim>124</dim>
				</port>
				<port id="1" precision="FP32">
					<dim>1</dim>
					<dim>64</dim>
					<dim>1</dim>
					<dim>1</dim>
				</port>
			</input>
			<output>
				<port id="2" precision="FP32" names="/bbox_head/cls_convs.0/gn/Mul_output_0">
					<dim>-1</dim>
					<dim>64</dim>
					<dim>92</dim>
					<dim>124</dim>
				</port>
			</output>
		</layer>
		<layer id="310" name="Constant_43277" type="Const" version="opset1">
			<data element_type="f32" shape="1, 64, 1, 1" offset="7598952" size="256" />
			<output>
				<port id="0" precision="FP32">
					<dim>1</dim>
					<dim>64</dim>
					<dim>1</dim>
					<dim>1</dim>
				</port>
			</output>
		</layer>
		<layer id="311" name="/bbox_head/cls_convs.0/gn/Add" type="Add" version="opset1">
			<data auto_broadcast="numpy" />
			<input>
				<port id="0" precision="FP32">
					<dim>-1</dim>
					<dim>64</dim>
					<dim>92</dim>
					<dim>124</dim>
				</port>
				<port id="1" precision="FP32">
					<dim>1</dim>
					<dim>64</dim>
					<dim>1</dim>
					<dim>1</dim>
				</port>
			</input>
			<output>
				<port id="2" precision="FP32" names="/bbox_head/cls_convs.0/gn/Add_output_0">
					<dim>-1</dim>
					<dim>64</dim>
					<dim>92</dim>
					<dim>124</dim>
				</port>
			</output>
		</layer>
		<layer id="312" name="/bbox_head/cls_convs.0/activate/Relu" type="ReLU" version="opset1">
			<input>
				<port id="0" precision="FP32">
					<dim>-1</dim>
					<dim>64</dim>
					<dim>92</dim>
					<dim>124</dim>
				</port>
			</input>
			<output>
				<port id="1" precision="FP32" names="/bbox_head/cls_convs.0/activate/Relu_output_0">
					<dim>-1</dim>
					<dim>64</dim>
					<dim>92</dim>
					<dim>124</dim>
				</port>
			</output>
		</layer>
		<layer id="313" name="bbox_head.cls_convs.1.conv.weight" type="Const" version="opset1">
			<data element_type="f32" shape="64, 64, 3, 3" offset="7599208" size="147456" />
			<output>
				<port id="0" precision="FP32" names="bbox_head.cls_convs.1.conv.weight">
					<dim>64</dim>
					<dim>64</dim>
					<dim>3</dim>
					<dim>3</dim>
				</port>
			</output>
		</layer>
		<layer id="314" name="/bbox_head/cls_convs.1/conv/Conv" type="Convolution" version="opset1">
			<data strides="1, 1" dilations="1, 1" pads_begin="1, 1" pads_end="1, 1" auto_pad="explicit" />
			<input>
				<port id="0" precision="FP32">
					<dim>-1</dim>
					<dim>64</dim>
					<dim>92</dim>
					<dim>124</dim>
				</port>
				<port id="1" precision="FP32">
					<dim>64</dim>
					<dim>64</dim>
					<dim>3</dim>
					<dim>3</dim>
				</port>
			</input>
			<output>
				<port id="2" precision="FP32" names="/bbox_head/cls_convs.1/conv/Conv_output_0">
					<dim>-1</dim>
					<dim>64</dim>
					<dim>92</dim>
					<dim>124</dim>
				</port>
			</output>
		</layer>
		<layer id="315" name="/bbox_head/cls_convs.1/gn/Constant" type="Const" version="opset1">
			<data element_type="i64" shape="3" offset="7598672" size="24" />
			<output>
				<port id="0" precision="I64" names="/bbox_head/cls_convs.1/gn/Constant_output_0">
					<dim>3</dim>
				</port>
			</output>
		</layer>
		<layer id="316" name="/bbox_head/cls_convs.1/gn/Reshape" type="Reshape" version="opset1">
			<data special_zero="true" />
			<input>
				<port id="0" precision="FP32">
					<dim>-1</dim>
					<dim>64</dim>
					<dim>92</dim>
					<dim>124</dim>
				</port>
				<port id="1" precision="I64">
					<dim>3</dim>
				</port>
			</input>
			<output>
				<port id="2" precision="FP32" names="/bbox_head/cls_convs.1/gn/Reshape_output_0">
					<dim>-1</dim>
					<dim>32</dim>
					<dim>22816</dim>
				</port>
			</output>
		</layer>
		<layer id="317" name="Constant_2208" type="Const" version="opset1">
			<data element_type="i64" shape="1" offset="7303472" size="8" />
			<output>
				<port id="0" precision="I64">
					<dim>1</dim>
				</port>
			</output>
		</layer>
		<layer id="318" name="MVN_2209" type="MVN" version="opset6">
			<data eps="9.9999997473787516e-06" normalize_variance="true" eps_mode="INSIDE_SQRT" />
			<input>
				<port id="0" precision="FP32">
					<dim>-1</dim>
					<dim>32</dim>
					<dim>22816</dim>
				</port>
				<port id="1" precision="I64">
					<dim>1</dim>
				</port>
			</input>
			<output>
				<port id="2" precision="FP32" names="/bbox_head/cls_convs.1/gn/InstanceNormalization_output_0">
					<dim>-1</dim>
					<dim>32</dim>
					<dim>22816</dim>
				</port>
			</output>
		</layer>
		<layer id="319" name="/bbox_head/cls_convs.1/gn/Shape" type="ShapeOf" version="opset3">
			<data output_type="i64" />
			<input>
				<port id="0" precision="FP32">
					<dim>-1</dim>
					<dim>64</dim>
					<dim>92</dim>
					<dim>124</dim>
				</port>
			</input>
			<output>
…
		<edge from-layer="1566" from-port="0" to-layer="1567" to-port="3" />
		<edge from-layer="1567" from-port="4" to-layer="1568" to-port="1" />
		<edge from-layer="1568" from-port="2" to-layer="1569" to-port="1" />
		<edge from-layer="1569" from-port="2" to-layer="1607" to-port="0" />
		<edge from-layer="1569" from-port="2" to-layer="1579" to-port="0" />
		<edge from-layer="1570" from-port="0" to-layer="1573" to-port="1" />
		<edge from-layer="1571" from-port="0" to-layer="1573" to-port="2" />
		<edge from-layer="1572" from-port="0" to-layer="1573" to-port="3" />
		<edge from-layer="1573" from-port="4" to-layer="1574" to-port="0" />
		<edge from-layer="1574" from-port="1" to-layer="1575" to-port="0" />
		<edge from-layer="1575" from-port="1" to-layer="1576" to-port="1" />
		<edge from-layer="1576" from-port="2" to-layer="1578" to-port="0" />
		<edge from-layer="1577" from-port="0" to-layer="1578" to-port="1" />
		<edge from-layer="1578" from-port="2" to-layer="1607" to-port="1" />
		<edge from-layer="1578" from-port="2" to-layer="1579" to-port="1" />
		<edge from-layer="1579" from-port="2" to-layer="1582" to-port="0" />
		<edge from-layer="1579" from-port="2" to-layer="1598" to-port="0" />
		<edge from-layer="1580" from-port="0" to-layer="1582" to-port="1" />
		<edge from-layer="1580" from-port="0" to-layer="1970" to-port="1" />
		<edge from-layer="1580" from-port="0" to-layer="1609" to-port="1" />
		<edge from-layer="1580" from-port="0" to-layer="1600" to-port="1" />
		<edge from-layer="1581" from-port="0" to-layer="1582" to-port="2" />
		<edge from-layer="1582" from-port="3" to-layer="1592" to-port="0" />
		<edge from-layer="1583" from-port="1" to-layer="1587" to-port="0" />
		<edge from-layer="1584" from-port="0" to-layer="1587" to-port="1" />
		<edge from-layer="1585" from-port="0" to-layer="1587" to-port="2" />
		<edge from-layer="1586" from-port="0" to-layer="1587" to-port="3" />
		<edge from-layer="1587" from-port="4" to-layer="1600" to-port="0" />
		<edge from-layer="1587" from-port="4" to-layer="1590" to-port="0" />
		<edge from-layer="1588" from-port="0" to-layer="1978" to-port="1" />
		<edge from-layer="1588" from-port="0" to-layer="1590" to-port="1" />
		<edge from-layer="1588" from-port="0" to-layer="1598" to-port="1" />
		<edge from-layer="1588" from-port="0" to-layer="1616" to-port="1" />
		<edge from-layer="1589" from-port="0" to-layer="1590" to-port="2" />
		<edge from-layer="1590" from-port="3" to-layer="1591" to-port="0" />
		<edge from-layer="1591" from-port="1" to-layer="1612" to-port="1" />
		<edge from-layer="1591" from-port="1" to-layer="1610" to-port="1" />
		<edge from-layer="1591" from-port="1" to-layer="1592" to-port="1" />
		<edge from-layer="1591" from-port="1" to-layer="1594" to-port="1" />
		<edge from-layer="1592" from-port="2" to-layer="1593" to-port="0" />
		<edge from-layer="1593" from-port="1" to-layer="1594" to-port="0" />
		<edge from-layer="1594" from-port="2" to-layer="1596" to-port="0" />
		<edge from-layer="1595" from-port="0" to-layer="1596" to-port="1" />
		<edge from-layer="1596" from-port="2" to-layer="1622" to-port="0" />
		<edge from-layer="1597" from-port="0" to-layer="1598" to-port="2" />
		<edge from-layer="1598" from-port="3" to-layer="1602" to-port="0" />
		<edge from-layer="1599" from-port="0" to-layer="1600" to-port="2" />
		<edge from-layer="1600" from-port="3" to-layer="1601" to-port="0" />
		<edge from-layer="1601" from-port="1" to-layer="1602" to-port="1" />
		<edge from-layer="1601" from-port="1" to-layer="1604" to-port="1" />
		<edge from-layer="1601" from-port="1" to-layer="1617" to-port="1" />
		<edge from-layer="1601" from-port="1" to-layer="1619" to-port="1" />
		<edge from-layer="1602" from-port="2" to-layer="1603" to-port="0" />
		<edge from-layer="1603" from-port="1" to-layer="1604" to-port="0" />
		<edge from-layer="1604" from-port="2" to-layer="1606" to-port="0" />
		<edge from-layer="1605" from-port="0" to-layer="1606" to-port="1" />
		<edge from-layer="1606" from-port="2" to-layer="1622" to-port="1" />
		<edge from-layer="1607" from-port="2" to-layer="1609" to-port="0" />
		<edge from-layer="1607" from-port="2" to-layer="1616" to-port="0" />
		<edge from-layer="1608" from-port="0" to-layer="1609" to-port="2" />
		<edge from-layer="1609" from-port="3" to-layer="1610" to-port="0" />
		<edge from-layer="1610" from-port="2" to-layer="1611" to-port="0" />
		<edge from-layer="1611" from-port="1" to-layer="1612" to-port="0" />
		<edge from-layer="1612" from-port="2" to-layer="1614" to-port="0" />
		<edge from-layer="1613" from-port="0" to-layer="1614" to-port="1" />
		<edge from-layer="1614" from-port="2" to-layer="1622" to-port="2" />
		<edge from-layer="1615" from-port="0" to-layer="1616" to-port="2" />
		<edge from-layer="1616" from-port="3" to-layer="1617" to-port="0" />
		<edge from-layer="1617" from-port="2" to-layer="1618" to-port="0" />
		<edge from-layer="1618" from-port="1" to-layer="1619" to-port="0" />
		<edge from-layer="1619" from-port="2" to-layer="1621" to-port="0" />
		<edge from-layer="1620" from-port="0" to-layer="1621" to-port="1" />
		<edge from-layer="1621" from-port="2" to-layer="1622" to-port="3" />
		<edge from-layer="1622" from-port="4" to-layer="1624" to-port="0" />
		<edge from-layer="1623" from-port="1" to-layer="1624" to-port="1" />
		<edge from-layer="1624" from-port="2" to-layer="1625" to-port="0" />
		<edge from-layer="1624" from-port="2" to-layer="1634" to-port="0" />
		<edge from-layer="1625" from-port="1" to-layer="1924" to-port="0" />
		<edge from-layer="1625" from-port="1" to-layer="1629" to-port="0" />
		<edge from-layer="1625" from-port="1" to-layer="1932" to-port="0" />
		<edge from-layer="1626" from-port="0" to-layer="1629" to-port="1" />
		<edge from-layer="1627" from-port="0" to-layer="1629" to-port="2" />
		<edge from-layer="1628" from-port="0" to-layer="1629" to-port="3" />
		<edge from-layer="1629" from-port="4" to-layer="1631" to-port="0" />
		<edge from-layer="1630" from-port="0" to-layer="1631" to-port="1" />
		<edge from-layer="1631" from-port="2" to-layer="1633" to-port="0" />
		<edge from-layer="1632" from-port="0" to-layer="1633" to-port="1" />
		<edge from-layer="1633" from-port="2" to-layer="1634" to-port="1" />
		<edge from-layer="1634" from-port="2" to-layer="1928" to-port="0" />
		<edge from-layer="1635" from-port="1" to-layer="1647" to-port="0" />
		<edge from-layer="1635" from-port="1" to-layer="1655" to-port="0" />
		<edge from-layer="1635" from-port="1" to-layer="1639" to-port="0" />
		<edge from-layer="1636" from-port="0" to-layer="1639" to-port="1" />
		<edge from-layer="1637" from-port="0" to-layer="1639" to-port="2" />
		<edge from-layer="1638" from-port="0" to-layer="1639" to-port="3" />
		<edge from-layer="1639" from-port="4" to-layer="1641" to-port="0" />
		<edge from-layer="1640" from-port="0" to-layer="1641" to-port="1" />
		<edge from-layer="1641" from-port="2" to-layer="1643" to-port="0" />
		<edge from-layer="1642" from-port="0" to-layer="1643" to-port="1" />
		<edge from-layer="1643" from-port="2" to-layer="1644" to-port="1" />
		<edge from-layer="1644" from-port="2" to-layer="1651" to-port="0" />
		<edge from-layer="1645" from-port="0" to-layer="1647" to-port="1" />
		<edge from-layer="1646" from-port="0" to-layer="1647" to-port="2" />
		<edge from-layer="1647" from-port="3" to-layer="1648" to-port="1" />
		<edge from-layer="1648" from-port="2" to-layer="1649" to-port="1" />
		<edge from-layer="1649" from-port="2" to-layer="1651" to-port="1" />
		<edge from-layer="1649" from-port="2" to-layer="1658" to-port="0" />
		<edge from-layer="1650" from-port="0" to-layer="1651" to-port="2" />
		<edge from-layer="1651" from-port="3" to-layer="1657" to-port="0" />
		<edge from-layer="1652" from-port="0" to-layer="1656" to-port="0" />
		<edge from-layer="1653" from-port="0" to-layer="1655" to-port="1" />
		<edge from-layer="1654" from-port="0" to-layer="1655" to-port="2" />
		<edge from-layer="1655" from-port="3" to-layer="1659" to-port="1" />
		<edge from-layer="1655" from-port="3" to-layer="1656" to-port="1" />
		<edge from-layer="1656" from-port="2" to-layer="1657" to-port="1" />
		<edge from-layer="1657" from-port="2" to-layer="1660" to-port="0" />
		<edge from-layer="1658" from-port="1" to-layer="1659" to-port="0" />
		<edge from-layer="1659" from-port="2" to-layer="1660" to-port="1" />
		<edge from-layer="1660" from-port="2" to-layer="1765" to-port="0" />
		<edge from-layer="1661" from-port="1" to-layer="1681" to-port="0" />
		<edge from-layer="1661" from-port="1" to-layer="1665" to-port="0" />
		<edge from-layer="1661" from-port="1" to-layer="1673" to-port="0" />
		<edge from-layer="1662" from-port="0" to-layer="1665" to-port="1" />
		<edge from-layer="1663" from-port="0" to-layer="1665" to-port="2" />
		<edge from-layer="1664" from-port="0" to-layer="1665" to-port="3" />
		<edge from-layer="1665" from-port="4" to-layer="1667" to-port="0" />
		<edge from-layer="1666" from-port="0" to-layer="1667" to-port="1" />
		<edge from-layer="1667" from-port="2" to-layer="1669" to-port="0" />
		<edge from-layer="1668" from-port="0" to-layer="1669" to-port="1" />
		<edge from-layer="1669" from-port="2" to-layer="1670" to-port="1" />
		<edge from-layer="1670" from-port="2" to-layer="1677" to-port="0" />
		<edge from-layer="1671" from-port="0" to-layer="1673" to-port="1" />
		<edge from-layer="1672" from-port="0" to-layer="1673" to-port="2" />
		<edge from-layer="1673" from-port="3" to-layer="1674" to-port="1" />
		<edge from-layer="1674" from-port="2" to-layer="1675" to-port="1" />
		<edge from-layer="1675" from-port="2" to-layer="1684" to-port="0" />
		<edge from-layer="1675" from-port="2" to-layer="1677" to-port="1" />
		<edge from-layer="1676" from-port="0" to-layer="1677" to-port="2" />
		<edge from-layer="1677" from-port="3" to-layer="1683" to-port="0" />
		<edge from-layer="1678" from-port="0" to-layer="1682" to-port="0" />
		<edge from-layer="1679" from-port="0" to-layer="1681" to-port="1" />
		<edge from-layer="1680" from-port="0" to-layer="1681" to-port="2" />
		<edge from-layer="1681" from-port="3" to-layer="1685" to-port="1" />
		<edge from-layer="1681" from-port="3" to-layer="1682" to-port="1" />
		<edge from-layer="1682" from-port="2" to-layer="1683" to-port="1" />
		<edge from-layer="1683" from-port="2" to-layer="1686" to-port="0" />
		<edge from-layer="1684" from-port="1" to-layer="1685" to-port="0" />
		<edge from-layer="1685" from-port="2" to-layer="1686" to-port="1" />
		<edge from-layer="1686" from-port="2" to-layer="1765" to-port="1" />
		<edge from-layer="1687" from-port="1" to-layer="1699" to-port="0" />
		<edge from-layer="1687" from-port="1" to-layer="1691" to-port="0" />
		<edge from-layer="1687" from-port="1" to-layer="1707" to-port="0" />
		<edge from-layer="1688" from-port="0" to-layer="1691" to-port="1" />
		<edge from-layer="1689" from-port="0" to-layer="1691" to-port="2" />
		<edge from-layer="1690" from-port="0" to-layer="1691" to-port="3" />
		<edge from-layer="1691" from-port="4" to-layer="1693" to-port="0" />
		<edge from-layer="1692" from-port="0" to-layer="1693" to-port="1" />
		<edge from-layer="1693" from-port="2" to-layer="1695" to-port="0" />
		<edge from-layer="1694" from-port="0" to-layer="1695" to-port="1" />
		<edge from-layer="1695" from-port="2" to-layer="1696" to-port="1" />
		<edge from-layer="1696" from-port="2" to-layer="1703" to-port="0" />
		<edge from-layer="1697" from-port="0" to-layer="1699" to-port="1" />
		<edge from-layer="1698" from-port="0" to-layer="1699" to-port="2" />
		<edge from-layer="1699" from-port="3" to-layer="1700" to-port="1" />
		<edge from-layer="1700" from-port="2" to-layer="1701" to-port="1" />
		<edge from-layer="1701" from-port="2" to-layer="1703" to-port="1" />
		<edge from-layer="1701" from-port="2" to-layer="1710" to-port="0" />
		<edge from-layer="1702" from-port="0" to-layer="1703" to-port="2" />
		<edge from-layer="1703" from-port="3" to-layer="1709" to-port="0" />
		<edge from-layer="1704" from-port="0" to-layer="1708" to-port="0" />
		<edge from-layer="1705" from-port="0" to-layer="1707" to-port="1" />
		<edge from-layer="1706" from-port="0" to-layer="1707" to-port="2" />
		<edge from-layer="1707" from-port="3" to-layer="1711" to-port="1" />
		<edge from-layer="1707" from-port="3" to-layer="1708" to-port="1" />
		<edge from-layer="1708" from-port="2" to-layer="1709" to-port="1" />
		<edge from-layer="1709" from-port="2" to-layer="1712" to-port="0" />
		<edge from-layer="1710" from-port="1" to-layer="1711" to-port="0" />
		<edge from-layer="1711" from-port="2" to-layer="1712" to-port="1" />
		<edge from-layer="1712" from-port="2" to-layer="1765" to-port="2" />
		<edge from-layer="1713" from-port="1" to-layer="1733" to-port="0" />
		<edge from-layer="1713" from-port="1" to-layer="1717" to-port="0" />
		<edge from-layer="1713" from-port="1" to-layer="1725" to-port="0" />
		<edge from-layer="1714" from-port="0" to-layer="1717" to-port="1" />
		<edge from-layer="1715" from-port="0" to-layer="1717" to-port="2" />
		<edge from-layer="1716" from-port="0" to-layer="1717" to-port="3" />
		<edge from-layer="1717" from-port="4" to-layer="1719" to-port="0" />
		<edge from-layer="1718" from-port="0" to-layer="1719" to-port="1" />
		<edge from-layer="1719" from-port="2" to-layer="1721" to-port="0" />
		<edge from-layer="1720" from-port="0" to-layer="1721" to-port="1" />
		<edge from-layer="1721" from-port="2" to-layer="1722" to-port="1" />
		<edge from-layer="1722" from-port="2" to-layer="1729" to-port="0" />
		<edge from-layer="1723" from-port="0" to-layer="1725" to-port="1" />
		<edge from-layer="1724" from-port="0" to-layer="1725" to-port="2" />
		<edge from-layer="1725" from-port="3" to-layer="1726" to-port="1" />
		<edge from-layer="1726" from-port="2" to-layer="1727" to-port="1" />
		<edge from-layer="1727" from-port="2" to-layer="1736" to-port="0" />
		<edge from-layer="1727" from-port="2" to-layer="1729" to-port="1" />
		<edge from-layer="1728" from-port="0" to-layer="1729" to-port="2" />
		<edge from-layer="1729" from-port="3" to-layer="1735" to-port="0" />
		<edge from-layer="1730" from-port="0" to-layer="1734" to-port="0" />
		<edge from-layer="1731" from-port="0" to-layer="1733" to-port="1" />
		<edge from-layer="1732" from-port="0" to-layer="1733" to-port="2" />
		<edge from-layer="1733" from-port="3" to-layer="1734" to-port="1" />
		<edge from-layer="1733" from-port="3" to-layer="1737" to-port="1" />
		<edge from-layer="1734" from-port="2" to-layer="1735" to-port="1" />
		<edge from-layer="1735" from-port="2" to-layer="1738" to-port="0" />
		<edge from-layer="1736" from-port="1" to-layer="1737" to-port="0" />
		<edge from-layer="1737" from-port="2" to-layer="1738" to-port="1" />
		<edge from-layer="1738" from-port="2" to-layer="1765" to-port="3" />
		<edge from-layer="1739" from-port="1" to-layer="1751" to-port="0" />
		<edge from-layer="1739" from-port="1" to-layer="1743" to-port="0" />
		<edge from-layer="1739" from-port="1" to-layer="1759" to-port="0" />
		<edge from-layer="1740" from-port="0" to-layer="1743" to-port="1" />
		<edge from-layer="1741" from-port="0" to-layer="1743" to-port="2" />
		<edge from-layer="1742" from-port="0" to-layer="1743" to-port="3" />
		<edge from-layer="1743" from-port="4" to-layer="1745" to-port="0" />
		<edge from-layer="1744" from-port="0" to-layer="1745" to-port="1" />
		<edge from-layer="1745" from-port="2" to-layer="1747" to-port="0" />
		<edge from-layer="1746" from-port="0" to-layer="1747" to-port="1" />
		<edge from-layer="1747" from-port="2" to-layer="1748" to-port="1" />
		<edge from-layer="1748" from-port="2" to-layer="1755" to-port="0" />
		<edge from-layer="1749" from-port="0" to-layer="1751" to-port="1" />
		<edge from-layer="1750" from-port="0" to-layer="1751" to-port="2" />
		<edge from-layer="1751" from-port="3" to-layer="1752" to-port="1" />
		<edge from-layer="1752" from-port="2" to-layer="1753" to-port="1" />
		<edge from-layer="1753" from-port="2" to-layer="1755" to-port="1" />
		<edge from-layer="1753" from-port="2" to-layer="1762" to-port="0" />
		<edge from-layer="1754" from-port="0" to-layer="1755" to-port="2" />
		<edge from-layer="1755" from-port="3" to-layer="1761" to-port="0" />
		<edge from-layer="1756" from-port="0" to-layer="1760" to-port="0" />
		<edge from-layer="1757" from-port="0" to-layer="1759" to-port="1" />
		<edge from-layer="1758" from-port="0" to-layer="1759" to-port="2" />
		<edge from-layer="1759" from-port="3" to-layer="1763" to-port="1" />
		<edge from-layer="1759" from-port="3" to-layer="1760" to-port="1" />
		<edge from-layer="1760" from-port="2" to-layer="1761" to-port="1" />
		<edge from-layer="1761" from-port="2" to-layer="1764" to-port="0" />
		<edge from-layer="1762" from-port="1" to-layer="1763" to-port="0" />
		<edge from-layer="1763" from-port="2" to-layer="1764" to-port="1" />
		<edge from-layer="1764" from-port="2" to-layer="1765" to-port="4" />
		<edge from-layer="1765" from-port="5" to-layer="1897" to-port="0" />
		<edge from-layer="1766" from-port="1" to-layer="1786" to-port="0" />
		<edge from-layer="1766" from-port="1" to-layer="1778" to-port="0" />
		<edge from-layer="1766" from-port="1" to-layer="1770" to-port="0" />
		<edge from-layer="1767" from-port="0" to-layer="1770" to-port="1" />
		<edge from-layer="1768" from-port="0" to-layer="1770" to-port="2" />
		<edge from-layer="1769" from-port="0" to-layer="1770" to-port="3" />
		<edge from-layer="1770" from-port="4" to-layer="1772" to-port="0" />
		<edge from-layer="1771" from-port="0" to-layer="1772" to-port="1" />
		<edge from-layer="1772" from-port="2" to-layer="1774" to-port="0" />
		<edge from-layer="1773" from-port="0" to-layer="1774" to-port="1" />
		<edge from-layer="1774" from-port="2" to-layer="1775" to-port="1" />
		<edge from-layer="1775" from-port="2" to-layer="1782" to-port="0" />
		<edge from-layer="1776" from-port="0" to-layer="1778" to-port="1" />
		<edge from-layer="1777" from-port="0" to-layer="1778" to-port="2" />
		<edge from-layer="1778" from-port="3" to-layer="1779" to-port="1" />
		<edge from-layer="1779" from-port="2" to-layer="1780" to-port="1" />
		<edge from-layer="1780" from-port="2" to-layer="1789" to-port="0" />
		<edge from-layer="1780" from-port="2" to-layer="1782" to-port="1" />
		<edge from-layer="1781" from-port="0" to-layer="1782" to-port="2" />
		<edge from-layer="1782" from-port="3" to-layer="1788" to-port="0" />
		<edge from-layer="1783" from-port="0" to-layer="1787" to-port="0" />
		<edge from-layer="1784" from-port="0" to-layer="1786" to-port="1" />
		<edge from-layer="1785" from-port="0" to-layer="1786" to-port="2" />
		<edge from-layer="1786" from-port="3" to-layer="1787" to-port="1" />
		<edge from-layer="1786" from-port="3" to-layer="1790" to-port="1" />
		<edge from-layer="1787" from-port="2" to-layer="1788" to-port="1" />
		<edge from-layer="1788" from-port="2" to-layer="1791" to-port="0" />
		<edge from-layer="1789" from-port="1" to-layer="1790" to-port="0" />
		<edge from-layer="1790" from-port="2" to-layer="1791" to-port="1" />
		<edge from-layer="1791" from-port="2" to-layer="1896" to-port="0" />
		<edge from-layer="1792" from-port="1" to-layer="1804" to-port="0" />
		<edge from-layer="1792" from-port="1" to-layer="1812" to-port="0" />
		<edge from-layer="1792" from-port="1" to-layer="1796" to-port="0" />
		<edge from-layer="1793" from-port="0" to-layer="1796" to-port="1" />
		<edge from-layer="1794" from-port="0" to-layer="1796" to-port="2" />
		<edge from-layer="1795" from-port="0" to-layer="1796" to-port="3" />
		<edge from-layer="1796" from-port="4" to-layer="1798" to-port="0" />
		<edge from-layer="1797" from-port="0" to-layer="1798" to-port="1" />
		<edge from-layer="1798" from-port="2" to-layer="1800" to-port="0" />
		<edge from-layer="1799" from-port="0" to-layer="1800" to-port="1" />
		<edge from-layer="1800" from-port="2" to-layer="1801" to-port="1" />
		<edge from-layer="1801" from-port="2" to-layer="1808" to-port="0" />
		<edge from-layer="1802" from-port="0" to-layer="1804" to-port="1" />
		<edge from-layer="1803" from-port="0" to-layer="1804" to-port="2" />
		<edge from-layer="1804" from-port="3" to-layer="1805" to-port="1" />
		<edge from-layer="1805" from-port="2" to-layer="1806" to-port="1" />
		<edge from-layer="1806" from-port="2" to-layer="1808" to-port="1" />
		<edge from-layer="1806" from-port="2" to-layer="1815" to-port="0" />
		<edge from-layer="1807" from-port="0" to-layer="1808" to-port="2" />
		<edge from-layer="1808" from-port="3" to-layer="1814" to-port="0" />
		<edge from-layer="1809" from-port="0" to-layer="1813" to-port="0" />
		<edge from-layer="1810" from-port="0" to-layer="1812" to-port="1" />
		<edge from-layer="1811" from-port="0" to-layer="1812" to-port="2" />
		<edge from-layer="1812" from-port="3" to-layer="1816" to-port="1" />
		<edge from-layer="1812" from-port="3" to-layer="1813" to-port="1" />
		<edge from-layer="1813" from-port="2" to-layer="1814" to-port="1" />
		<edge from-layer="1814" from-port="2" to-layer="1817" to-port="0" />
		<edge from-layer="1815" from-port="1" to-layer="1816" to-port="0" />
		<edge from-layer="1816" from-port="2" to-layer="1817" to-port="1" />
		<edge from-layer="1817" from-port="2" to-layer="1896" to-port="1" />
		<edge from-layer="1818" from-port="1" to-layer="1822" to-port="0" />
		<edge from-layer="1818" from-port="1" to-layer="1838" to-port="0" />
		<edge from-layer="1818" from-port="1" to-layer="1830" to-port="0" />
		<edge from-layer="1819" from-port="0" to-layer="1822" to-port="1" />
		<edge from-layer="1820" from-port="0" to-layer="1822" to-port="2" />
		<edge from-layer="1821" from-port="0" to-layer="1822" to-port="3" />
		<edge from-layer="1822" from-port="4" to-layer="1824" to-port="0" />
		<edge from-layer="1823" from-port="0" to-layer="1824" to-port="1" />
		<edge from-layer="1824" from-port="2" to-layer="1826" to-port="0" />
		<edge from-layer="1825" from-port="0" to-layer="1826" to-port="1" />
		<edge from-layer="1826" from-port="2" to-layer="1827" to-port="1" />
		<edge from-layer="1827" from-port="2" to-layer="1834" to-port="0" />
		<edge from-layer="1828" from-port="0" to-layer="1830" to-port="1" />
		<edge from-layer="1829" from-port="0" to-layer="1830" to-port="2" />
		<edge from-layer="1830" from-port="3" to-layer="1831" to-port="1" />
		<edge from-layer="1831" from-port="2" to-layer="1832" to-port="1" />
		<edge from-layer="1832" from-port="2" to-layer="1841" to-port="0" />
		<edge from-layer="1832" from-port="2" to-layer="1834" to-port="1" />
		<edge from-layer="1833" from-port="0" to-layer="1834" to-port="2" />
		<edge from-layer="1834" from-port="3" to-layer="1840" to-port="0" />
		<edge from-layer="1835" from-port="0" to-layer="1839" to-port="0" />
		<edge from-layer="1836" from-port="0" to-layer="1838" to-port="1" />
		<edge from-layer="1837" from-port="0" to-layer="1838" to-port="2" />
		<edge from-layer="1838" from-port="3" to-layer="1839" to-port="1" />
		<edge from-layer="1838" from-port="3" to-layer="1842" to-port="1" />
		<edge from-layer="1839" from-port="2" to-layer="1840" to-port="1" />
		<edge from-layer="1840" from-port="2" to-layer="1843" to-port="0" />
		<edge from-layer="1841" from-port="1" to-layer="1842" to-port="0" />
		<edge from-layer="1842" from-port="2" to-layer="1843" to-port="1" />
		<edge from-layer="1843" from-port="2" to-layer="1896" to-port="2" />
		<edge from-layer="1844" from-port="1" to-layer="1856" to-port="0" />
		<edge from-layer="1844" from-port="1" to-layer="1864" to-port="0" />
		<edge from-layer="1844" from-port="1" to-layer="1848" to-port="0" />
		<edge from-layer="1845" from-port="0" to-layer="1848" to-port="1" />
		<edge from-layer="1846" from-port="0" to-layer="1848" to-port="2" />
		<edge from-layer="1847" from-port="0" to-layer="1848" to-port="3" />
		<edge from-layer="1848" from-port="4" to-layer="1850" to-port="0" />
		<edge from-layer="1849" from-port="0" to-layer="1850" to-port="1" />
		<edge from-layer="1850" from-port="2" to-layer="1852" to-port="0" />
		<edge from-layer="1851" from-port="0" to-layer="1852" to-port="1" />
		<edge from-layer="1852" from-port="2" to-layer="1853" to-port="1" />
		<edge from-layer="1853" from-port="2" to-layer="1860" to-port="0" />
		<edge from-layer="1854" from-port="0" to-layer="1856" to-port="1" />
		<edge from-layer="1855" from-port="0" to-layer="1856" to-port="2" />
		<edge from-layer="1856" from-port="3" to-layer="1857" to-port="1" />
		<edge from-layer="1857" from-port="2" to-layer="1858" to-port="1" />
		<edge from-layer="1858" from-port="2" to-layer="1860" to-port="1" />
		<edge from-layer="1858" from-port="2" to-layer="1867" to-port="0" />
		<edge from-layer="1859" from-port="0" to-layer="1860" to-port="2" />
		<edge from-layer="1860" from-port="3" to-layer="1866" to-port="0" />
		<edge from-layer="1861" from-port="0" to-layer="1865" to-port="0" />
		<edge from-layer="1862" from-port="0" to-layer="1864" to-port="1" />
		<edge from-layer="1863" from-port="0" to-layer="1864" to-port="2" />
		<edge from-layer="1864" from-port="3" to-layer="1865" to-port="1" />
		<edge from-layer="1864" from-port="3" to-layer="1868" to-port="1" />
		<edge from-layer="1865" from-port="2" to-layer="1866" to-port="1" />
		<edge from-layer="1866" from-port="2" to-layer="1869" to-port="0" />
		<edge from-layer="1867" from-port="1" to-layer="1868" to-port="0" />
		<edge from-layer="1868" from-port="2" to-layer="1869" to-port="1" />
		<edge from-layer="1869" from-port="2" to-layer="1896" to-port="3" />
		<edge from-layer="1870" from-port="1" to-layer="1874" to-port="0" />
		<edge from-layer="1870" from-port="1" to-layer="1890" to-port="0" />
		<edge from-layer="1870" from-port="1" to-layer="1882" to-port="0" />
		<edge from-layer="1871" from-port="0" to-layer="1874" to-port="1" />
		<edge from-layer="1872" from-port="0" to-layer="1874" to-port="2" />
		<edge from-layer="1873" from-port="0" to-layer="1874" to-port="3" />
		<edge from-layer="1874" from-port="4" to-layer="1876" to-port="0" />
		<edge from-layer="1875" from-port="0" to-layer="1876" to-port="1" />
		<edge from-layer="1876" from-port="2" to-layer="1878" to-port="0" />
		<edge from-layer="1877" from-port="0" to-layer="1878" to-port="1" />
		<edge from-layer="1878" from-port="2" to-layer="1879" to-port="1" />
		<edge from-layer="1879" from-port="2" to-layer="1886" to-port="0" />
		<edge from-layer="1880" from-port="0" to-layer="1882" to-port="1" />
		<edge from-layer="1881" from-port="0" to-layer="1882" to-port="2" />
		<edge from-layer="1882" from-port="3" to-layer="1883" to-port="1" />
		<edge from-layer="1883" from-port="2" to-layer="1884" to-port="1" />
		<edge from-layer="1884" from-port="2" to-layer="1893" to-port="0" />
		<edge from-layer="1884" from-port="2" to-layer="1886" to-port="1" />
		<edge from-layer="1885" from-port="0" to-layer="1886" to-port="2" />
		<edge from-layer="1886" from-port="3" to-layer="1892" to-port="0" />
		<edge from-layer="1887" from-port="0" to-layer="1891" to-port="0" />
		<edge from-layer="1888" from-port="0" to-layer="1890" to-port="1" />
		<edge from-layer="1889" from-port="0" to-layer="1890" to-port="2" />
		<edge from-layer="1890" from-port="3" to-layer="1894" to-port="1" />
		<edge from-layer="1890" from-port="3" to-layer="1891" to-port="1" />
		<edge from-layer="1891" from-port="2" to-layer="1892" to-port="1" />
		<edge from-layer="1892" from-port="2" to-layer="1895" to-port="0" />
		<edge from-layer="1893" from-port="1" to-layer="1894" to-port="0" />
		<edge from-layer="1894" from-port="2" to-layer="1895" to-port="1" />
		<edge from-layer="1895" from-port="2" to-layer="1896" to-port="4" />
		<edge from-layer="1896" from-port="5" to-layer="1897" to-port="1" />
		<edge from-layer="1897" from-port="2" to-layer="1946" to-port="0" />
		<edge from-layer="1897" from-port="2" to-layer="1899" to-port="0" />
		<edge from-layer="1897" from-port="2" to-layer="1914" to-port="0" />
		<edge from-layer="1898" from-port="0" to-layer="1899" to-port="1" />
		<edge from-layer="1899" from-port="2" to-layer="1901" to-port="0" />
		<edge from-layer="1899" from-port="2" to-layer="1912" to-port="0" />
		<edge from-layer="1900" from-port="0" to-layer="1905" to-port="0" />
		<edge from-layer="1901" from-port="1" to-layer="1904" to-port="0" />
		<edge from-layer="1902" from-port="0" to-layer="1904" to-port="1" />
		<edge from-layer="1903" from-port="0" to-layer="1904" to-port="2" />
		<edge from-layer="1904" from-port="3" to-layer="1907" to-port="2" />
		<edge from-layer="1904" from-port="3" to-layer="1905" to-port="1" />
		<edge from-layer="1905" from-port="2" to-layer="1907" to-port="0" />
		<edge from-layer="1906" from-port="0" to-layer="1907" to-port="1" />
		<edge from-layer="1907" from-port="3" to-layer="1909" to-port="0" />
		<edge from-layer="1908" from-port="0" to-layer="1909" to-port="1" />
		<edge from-layer="1909" from-port="2" to-layer="1911" to-port="0" />
		<edge from-layer="1910" from-port="0" to-layer="1911" to-port="1" />
		<edge from-layer="1911" from-port="2" to-layer="1912" to-port="1" />
		<edge from-layer="1912" from-port="3" to-layer="1951" to-port="0" />
		<edge from-layer="1912" from-port="3" to-layer="1926" to-port="0" />
		<edge from-layer="1913" from-port="0" to-layer="1919" to-port="0" />
		<edge from-layer="1914" from-port="1" to-layer="1957" to-port="0" />
		<edge from-layer="1914" from-port="1" to-layer="1917" to-port="0" />
		<edge from-layer="1914" from-port="1" to-layer="1949" to-port="0" />
		<edge from-layer="1914" from-port="1" to-layer="1941" to-port="0" />
		<edge from-layer="1915" from-port="0" to-layer="1917" to-port="1" />
		<edge from-layer="1916" from-port="0" to-layer="1917" to-port="2" />
		<edge from-layer="1917" from-port="3" to-layer="1973" to-port="1" />
		<edge from-layer="1917" from-port="3" to-layer="1919" to-port="1" />
		<edge from-layer="1917" from-port="3" to-layer="2107" to-port="1" />
		<edge from-layer="1917" from-port="3" to-layer="1984" to-port="0" />
		<edge from-layer="1918" from-port="0" to-layer="1919" to-port="2" />
		<edge from-layer="1919" from-port="3" to-layer="1921" to-port="0" />
		<edge from-layer="1920" from-port="0" to-layer="1921" to-port="1" />
		<edge from-layer="1921" from-port="2" to-layer="1950" to-port="0" />
		<edge from-layer="1921" from-port="2" to-layer="1925" to-port="0" />
		<edge from-layer="1922" from-port="0" to-layer="1924" to-port="1" />
		<edge from-layer="1923" from-port="0" to-layer="1924" to-port="2" />
		<edge from-layer="1924" from-port="3" to-layer="1925" to-port="1" />
		<edge from-layer="1925" from-port="2" to-layer="1926" to-port="1" />
		<edge from-layer="1926" from-port="2" to-layer="1928" to-port="1" />
		<edge from-layer="1926" from-port="2" to-layer="1935" to-port="0" />
		<edge from-layer="1927" from-port="0" to-layer="1928" to-port="2" />
		<edge from-layer="1928" from-port="3" to-layer="1934" to-port="0" />
		<edge from-layer="1929" from-port="0" to-layer="1933" to-port="0" />
		<edge from-layer="1930" from-port="0" to-layer="1932" to-port="1" />
		<edge from-layer="1931" from-port="0" to-layer="1932" to-port="2" />
		<edge from-layer="1932" from-port="3" to-layer="1936" to-port="1" />
		<edge from-layer="1932" from-port="3" to-layer="1933" to-port="1" />
		<edge from-layer="1933" from-port="2" to-layer="1934" to-port="1" />
		<edge from-layer="1934" from-port="2" to-layer="1937" to-port="0" />
		<edge from-layer="1935" from-port="1" to-layer="1936" to-port="0" />
		<edge from-layer="1936" from-port="2" to-layer="1937" to-port="1" />
		<edge from-layer="1937" from-port="2" to-layer="2002" to-port="0" />
		<edge from-layer="1937" from-port="2" to-layer="1968" to-port="0" />
		<edge from-layer="1937" from-port="2" to-layer="1993" to-port="0" />
		<edge from-layer="1938" from-port="0" to-layer="1941" to-port="1" />
		<edge from-layer="1939" from-port="0" to-layer="1941" to-port="2" />
		<edge from-layer="1940" from-port="0" to-layer="1941" to-port="3" />
		<edge from-layer="1941" from-port="4" to-layer="1943" to-port="0" />
		<edge from-layer="1942" from-port="0" to-layer="1943" to-port="1" />
		<edge from-layer="1943" from-port="2" to-layer="1945" to-port="0" />
		<edge from-layer="1944" from-port="0" to-layer="1945" to-port="1" />
		<edge from-layer="1945" from-port="2" to-layer="1946" to-port="1" />
		<edge from-layer="1946" from-port="2" to-layer="1953" to-port="0" />
		<edge from-layer="1947" from-port="0" to-layer="1949" to-port="1" />
		<edge from-layer="1948" from-port="0" to-layer="1949" to-port="2" />
		<edge from-layer="1949" from-port="3" to-layer="1950" to-port="1" />
		<edge from-layer="1950" from-port="2" to-layer="1951" to-port="1" />
		<edge from-layer="1951" from-port="2" to-layer="1960" to-port="0" />
		<edge from-layer="1951" from-port="2" to-layer="1953" to-port="1" />
		<edge from-layer="1952" from-port="0" to-layer="1953" to-port="2" />
		<edge from-layer="1953" from-port="3" to-layer="1959" to-port="0" />
		<edge from-layer="1954" from-port="0" to-layer="1958" to-port="0" />
		<edge from-layer="1955" from-port="0" to-layer="1957" to-port="1" />
		<edge from-layer="1956" from-port="0" to-layer="1957" to-port="2" />
		<edge from-layer="1957" from-port="3" to-layer="1961" to-port="1" />
		<edge from-layer="1957" from-port="3" to-layer="1958" to-port="1" />
		<edge from-layer="1958" from-port="2" to-layer="1959" to-port="1" />
		<edge from-layer="1959" from-port="2" to-layer="1962" to-port="0" />
		<edge from-layer="1960" from-port="1" to-layer="1961" to-port="0" />
		<edge from-layer="1961" from-port="2" to-layer="1962" to-port="1" />
		<edge from-layer="1962" from-port="2" to-layer="2023" to-port="0" />
		<edge from-layer="1962" from-port="2" to-layer="1964" to-port="0" />
		<edge from-layer="1963" from-port="0" to-layer="1964" to-port="1" />
		<edge from-layer="1964" from-port="2" to-layer="1968" to-port="1" />
		<edge from-layer="1964" from-port="2" to-layer="2034" to-port="0" />
		<edge from-layer="1965" from-port="0" to-layer="1968" to-port="2" />
		<edge from-layer="1966" from-port="0" to-layer="1968" to-port="3" />
		<edge from-layer="1967" from-port="0" to-layer="1968" to-port="4" />
		<edge from-layer="1968" from-port="5" to-layer="1978" to-port="0" />
		<edge from-layer="1968" from-port="5" to-layer="2005" to-port="0" />
		<edge from-layer="1968" from-port="5" to-layer="1970" to-port="0" />
		<edge from-layer="1969" from-port="0" to-layer="1970" to-port="2" />
		<edge from-layer="1970" from-port="3" to-layer="2044" to-port="0" />
		<edge from-layer="1970" from-port="3" to-layer="1976" to-port="0" />
		<edge from-layer="1970" from-port="3" to-layer="2009" to-port="0" />
		<edge from-layer="1971" from-port="0" to-layer="1973" to-port="0" />
		<edge from-layer="1972" from-port="0" to-layer="1973" to-port="2" />
		<edge from-layer="1973" from-port="3" to-layer="1975" to-port="0" />
		<edge from-layer="1974" from-port="0" to-layer="1975" to-port="1" />
		<edge from-layer="1975" from-port="2" to-layer="1976" to-port="1" />
		<edge from-layer="1976" from-port="2" to-layer="1989" to-port="0" />
		<edge from-layer="1976" from-port="2" to-layer="1992" to-port="0" />
		<edge from-layer="1977" from-port="0" to-layer="1978" to-port="2" />
		<edge from-layer="1978" from-port="3" to-layer="2038" to-port="0" />
		<edge from-layer="1978" from-port="3" to-layer="1980" to-port="0" />
		<edge from-layer="1979" from-port="0" to-layer="1980" to-port="1" />
		<edge from-layer="1980" from-port="2" to-layer="1982" to-port="0" />
		<edge from-layer="1981" from-port="0" to-layer="1982" to-port="1" />
		<edge from-layer="1982" from-port="2" to-layer="1987" to-port="0" />
		<edge from-layer="1983" from-port="0" to-layer="1984" to-port="1" />
		<edge from-layer="1984" from-port="2" to-layer="2061" to-port="0" />
		<edge from-layer="1984" from-port="2" to-layer="1986" to-port="0" />
		<edge from-layer="1985" from-port="0" to-layer="1986" to-port="1" />
		<edge from-layer="1986" from-port="2" to-layer="1987" to-port="1" />
		<edge from-layer="1987" from-port="2" to-layer="1989" to-port="1" />
		<edge from-layer="1988" from-port="0" to-layer="1989" to-port="2" />
		<edge from-layer="1989" from-port="3" to-layer="2072" to-port="0" />
		<edge from-layer="1990" from-port="0" to-layer="2071" to-port="0" />
		<edge from-layer="1991" from-port="0" to-layer="1992" to-port="1" />
		<edge from-layer="1992" from-port="2" to-layer="2064" to-port="0" />
		<edge from-layer="1993" from-port="1" to-layer="1997" to-port="0" />
		<edge from-layer="1993" from-port="1" to-layer="2008" to-port="0" />
		<edge from-layer="1993" from-port="1" to-layer="2016" to-port="0" />
		<edge from-layer="1994" from-port="0" to-layer="1997" to-port="1" />
		<edge from-layer="1995" from-port="0" to-layer="1997" to-port="2" />
		<edge from-layer="1996" from-port="0" to-layer="1997" to-port="3" />
		<edge from-layer="1997" from-port="4" to-layer="1999" to-port="0" />
		<edge from-layer="1998" from-port="0" to-layer="1999" to-port="1" />
		<edge from-layer="1999" from-port="2" to-layer="2001" to-port="0" />
		<edge from-layer="2000" from-port="0" to-layer="2001" to-port="1" />
		<edge from-layer="2001" from-port="2" to-layer="2002" to-port="1" />
		<edge from-layer="2002" from-port="2" to-layer="2012" to-port="0" />
		<edge from-layer="2003" from-port="0" to-layer="2005" to-port="1" />
		<edge from-layer="2004" from-port="0" to-layer="2005" to-port="2" />
		<edge from-layer="2005" from-port="3" to-layer="2010" to-port="0" />
		<edge from-layer="2005" from-port="3" to-layer="2039" to-port="0" />
		<edge from-layer="2006" from-port="0" to-layer="2008" to-port="1" />
		<edge from-layer="2007" from-port="0" to-layer="2008" to-port="2" />
		<edge from-layer="2008" from-port="3" to-layer="2009" to-port="1" />
		<edge from-layer="2009" from-port="2" to-layer="2010" to-port="1" />
		<edge from-layer="2010" from-port="2" to-layer="2019" to-port="0" />
		<edge from-layer="2010" from-port="2" to-layer="2012" to-port="1" />
		<edge from-layer="2011" from-port="0" to-layer="2012" to-port="2" />
		<edge from-layer="2012" from-port="3" to-layer="2018" to-port="0" />
		<edge from-layer="2013" from-port="0" to-layer="2017" to-port="0" />
		<edge from-layer="2014" from-port="0" to-layer="2016" to-port="1" />
		<edge from-layer="2015" from-port="0" to-layer="2016" to-port="2" />
		<edge from-layer="2016" from-port="3" to-layer="2020" to-port="1" />
		<edge from-layer="2016" from-port="3" to-layer="2017" to-port="1" />
		<edge from-layer="2017" from-port="2" to-layer="2018" to-port="1" />
		<edge from-layer="2018" from-port="2" to-layer="2021" to-port="0" />
		<edge from-layer="2019" from-port="1" to-layer="2020" to-port="0" />
		<edge from-layer="2020" from-port="2" to-layer="2021" to-port="1" />
		<edge from-layer="2021" from-port="2" to-layer="2054" to-port="0" />
		<edge from-layer="2022" from-port="0" to-layer="2023" to-port="1" />
		<edge from-layer="2023" from-port="2" to-layer="2033" to-port="0" />
		<edge from-layer="2023" from-port="2" to-layer="2024" to-port="0" />
		<edge from-layer="2024" from-port="1" to-layer="2028" to-port="0" />
		<edge from-layer="2025" from-port="0" to-layer="2028" to-port="1" />
		<edge from-layer="2026" from-port="0" to-layer="2028" to-port="2" />
		<edge from-layer="2027" from-port="0" to-layer="2028" to-port="3" />
		<edge from-layer="2028" from-port="4" to-layer="2030" to-port="0" />
		<edge from-layer="2029" from-port="0" to-layer="2030" to-port="1" />
		<edge from-layer="2030" from-port="2" to-layer="2032" to-port="0" />
		<edge from-layer="2031" from-port="0" to-layer="2032" to-port="1" />
		<edge from-layer="2032" from-port="2" to-layer="2033" to-port="1" />
		<edge from-layer="2033" from-port="2" to-layer="2047" to-port="0" />
		<edge from-layer="2034" from-port="1" to-layer="2042" to-port="0" />
		<edge from-layer="2034" from-port="1" to-layer="2037" to-port="0" />
		<edge from-layer="2035" from-port="0" to-layer="2037" to-port="1" />
		<edge from-layer="2036" from-port="0" to-layer="2037" to-port="2" />
		<edge from-layer="2037" from-port="3" to-layer="2038" to-port="1" />
		<edge from-layer="2037" from-port="3" to-layer="2043" to-port="0" />
		<edge from-layer="2038" from-port="2" to-layer="2039" to-port="1" />
		<edge from-layer="2039" from-port="2" to-layer="2045" to-port="0" />
		<edge from-layer="2040" from-port="0" to-layer="2042" to-port="1" />
		<edge from-layer="2041" from-port="0" to-layer="2042" to-port="2" />
		<edge from-layer="2042" from-port="3" to-layer="2043" to-port="1" />
		<edge from-layer="2043" from-port="2" to-layer="2044" to-port="1" />
		<edge from-layer="2044" from-port="2" to-layer="2045" to-port="1" />
		<edge from-layer="2045" from-port="2" to-layer="2050" to-port="0" />
		<edge from-layer="2045" from-port="2" to-layer="2047" to-port="1" />
		<edge from-layer="2046" from-port="0" to-layer="2047" to-port="2" />
		<edge from-layer="2047" from-port="3" to-layer="2049" to-port="0" />
		<edge from-layer="2048" from-port="0" to-layer="2049" to-port="1" />
		<edge from-layer="2049" from-port="2" to-layer="2051" to-port="0" />
		<edge from-layer="2050" from-port="1" to-layer="2051" to-port="1" />
		<edge from-layer="2051" from-port="2" to-layer="2053" to-port="0" />
		<edge from-layer="2052" from-port="0" to-layer="2053" to-port="1" />
		<edge from-layer="2053" from-port="2" to-layer="2054" to-port="1" />
		<edge from-layer="2054" from-port="2" to-layer="2056" to-port="0" />
		<edge from-layer="2055" from-port="0" to-layer="2056" to-port="1" />
		<edge from-layer="2056" from-port="2" to-layer="2058" to-port="0" />
		<edge from-layer="2057" from-port="0" to-layer="2058" to-port="1" />
		<edge from-layer="2058" from-port="2" to-layer="2062" to-port="0" />
		<edge from-layer="2059" from-port="0" to-layer="2061" to-port="1" />
		<edge from-layer="2060" from-port="0" to-layer="2061" to-port="2" />
		<edge from-layer="2061" from-port="3" to-layer="2062" to-port="1" />
		<edge from-layer="2062" from-port="2" to-layer="2064" to-port="1" />
		<edge from-layer="2063" from-port="0" to-layer="2064" to-port="2" />
		<edge from-layer="2064" from-port="3" to-layer="2065" to-port="0" />
		<edge from-layer="2064" from-port="3" to-layer="2088" to-port="0" />
		<edge from-layer="2065" from-port="1" to-layer="2068" to-port="0" />
		<edge from-layer="2066" from-port="0" to-layer="2068" to-port="1" />
		<edge from-layer="2067" from-port="0" to-layer="2068" to-port="2" />
		<edge from-layer="2068" from-port="3" to-layer="2070" to-port="0" />
		<edge from-layer="2068" from-port="3" to-layer="2086" to-port="0" />
		<edge from-layer="2069" from-port="0" to-layer="2070" to-port="1" />
		<edge from-layer="2070" from-port="2" to-layer="2071" to-port="1" />
		<edge from-layer="2071" from-port="2" to-layer="2072" to-port="1" />
		<edge from-layer="2072" from-port="2" to-layer="2082" to-port="0" />
		<edge from-layer="2072" from-port="2" to-layer="2073" to-port="0" />
		<edge from-layer="2073" from-port="1" to-layer="2077" to-port="0" />
		<edge from-layer="2073" from-port="1" to-layer="2112" to-port="0" />
		<edge from-layer="2074" from-port="0" to-layer="2077" to-port="1" />
		<edge from-layer="2075" from-port="0" to-layer="2077" to-port="2" />
		<edge from-layer="2076" from-port="0" to-layer="2077" to-port="3" />
		<edge from-layer="2077" from-port="4" to-layer="2079" to-port="0" />
		<edge from-layer="2078" from-port="0" to-layer="2079" to-port="1" />
		<edge from-layer="2079" from-port="2" to-layer="2081" to-port="0" />
		<edge from-layer="2080" from-port="0" to-layer="2081" to-port="1" />
		<edge from-layer="2081" from-port="2" to-layer="2082" to-port="1" />
		<edge from-layer="2082" from-port="2" to-layer="2116" to-port="0" />
		<edge from-layer="2083" from-port="0" to-layer="2087" to-port="0" />
		<edge from-layer="2084" from-port="0" to-layer="2086" to-port="1" />
		<edge from-layer="2085" from-port="0" to-layer="2086" to-port="2" />
		<edge from-layer="2086" from-port="3" to-layer="2087" to-port="1" />
		<edge from-layer="2087" from-port="2" to-layer="2088" to-port="1" />
		<edge from-layer="2088" from-port="2" to-layer="2091" to-port="0" />
		<edge from-layer="2088" from-port="2" to-layer="2131" to-port="0" />
		<edge from-layer="2088" from-port="2" to-layer="2122" to-port="0" />
		<edge from-layer="2089" from-port="0" to-layer="2091" to-port="1" />
		<edge from-layer="2090" from-port="0" to-layer="2091" to-port="2" />
		<edge from-layer="2091" from-port="3" to-layer="2093" to-port="0" />
		<edge from-layer="2091" from-port="3" to-layer="2104" to-port="0" />
		<edge from-layer="2092" from-port="0" to-layer="2097" to-port="0" />
		<edge from-layer="2093" from-port="1" to-layer="2096" to-port="0" />
		<edge from-layer="2094" from-port="0" to-layer="2096" to-port="1" />
		<edge from-layer="2095" from-port="0" to-layer="2096" to-port="2" />
		<edge from-layer="2096" from-port="3" to-layer="2097" to-port="1" />
		<edge from-layer="2096" from-port="3" to-layer="2099" to-port="2" />
		<edge from-layer="2097" from-port="2" to-layer="2099" to-port="0" />
		<edge from-layer="2098" from-port="0" to-layer="2099" to-port="1" />
		<edge from-layer="2099" from-port="3" to-layer="2101" to-port="0" />
		<edge from-layer="2100" from-port="0" to-layer="2101" to-port="1" />
		<edge from-layer="2101" from-port="2" to-layer="2103" to-port="0" />
		<edge from-layer="2102" from-port="0" to-layer="2103" to-port="1" />
		<edge from-layer="2103" from-port="2" to-layer="2104" to-port="1" />
		<edge from-layer="2104" from-port="3" to-layer="2114" to-port="0" />
		<edge from-layer="2104" from-port="3" to-layer="2136" to-port="0" />
		<edge from-layer="2105" from-port="0" to-layer="2107" to-port="0" />
		<edge from-layer="2106" from-port="0" to-layer="2107" to-port="2" />
		<edge from-layer="2107" from-port="3" to-layer="2109" to-port="0" />
		<edge from-layer="2108" from-port="0" to-layer="2109" to-port="1" />
		<edge from-layer="2109" from-port="2" to-layer="2113" to-port="0" />
		<edge from-layer="2109" from-port="2" to-layer="2135" to-port="0" />
		<edge from-layer="2110" from-port="0" to-layer="2112" to-port="1" />
		<edge from-layer="2111" from-port="0" to-layer="2112" to-port="2" />
		<edge from-layer="2112" from-port="3" to-layer="2113" to-port="1" />
		<edge from-layer="2113" from-port="2" to-layer="2114" to-port="1" />
		<edge from-layer="2114" from-port="2" to-layer="2119" to-port="0" />
		<edge from-layer="2114" from-port="2" to-layer="2116" to-port="1" />
		<edge from-layer="2115" from-port="0" to-layer="2116" to-port="2" />
		<edge from-layer="2116" from-port="3" to-layer="2118" to-port="0" />
		<edge from-layer="2117" from-port="0" to-layer="2118" to-port="1" />
		<edge from-layer="2118" from-port="2" to-layer="2120" to-port="0" />
		<edge from-layer="2119" from-port="1" to-layer="2120" to-port="1" />
		<edge from-layer="2120" from-port="2" to-layer="2121" to-port="0" />
		<edge from-layer="2122" from-port="1" to-layer="2126" to-port="0" />
		<edge from-layer="2122" from-port="1" to-layer="2142" to-port="0" />
		<edge from-layer="2122" from-port="1" to-layer="2134" to-port="0" />
		<edge from-layer="2123" from-port="0" to-layer="2126" to-port="1" />
		<edge from-layer="2124" from-port="0" to-layer="2126" to-port="2" />
		<edge from-layer="2125" from-port="0" to-layer="2126" to-port="3" />
		<edge from-layer="2126" from-port="4" to-layer="2128" to-port="0" />
		<edge from-layer="2127" from-port="0" to-layer="2128" to-port="1" />
		<edge from-layer="2128" from-port="2" to-layer="2130" to-port="0" />
		<edge from-layer="2129" from-port="0" to-layer="2130" to-port="1" />
		<edge from-layer="2130" from-port="2" to-layer="2131" to-port="1" />
		<edge from-layer="2131" from-port="2" to-layer="2138" to-port="0" />
		<edge from-layer="2132" from-port="0" to-layer="2134" to-port="1" />
		<edge from-layer="2133" from-port="0" to-layer="2134" to-port="2" />
		<edge from-layer="2134" from-port="3" to-layer="2135" to-port="1" />
		<edge from-layer="2135" from-port="2" to-layer="2136" to-port="1" />
		<edge from-layer="2136" from-port="2" to-layer="2138" to-port="1" />
		<edge from-layer="2136" from-port="2" to-layer="2145" to-port="0" />
		<edge from-layer="2137" from-port="0" to-layer="2138" to-port="2" />
		<edge from-layer="2138" from-port="3" to-layer="2144" to-port="0" />
		<edge from-layer="2139" from-port="0" to-layer="2143" to-port="0" />
		<edge from-layer="2140" from-port="0" to-layer="2142" to-port="1" />
		<edge from-layer="2141" from-port="0" to-layer="2142" to-port="2" />
		<edge from-layer="2142" from-port="3" to-layer="2143" to-port="1" />
		<edge from-layer="2142" from-port="3" to-layer="2146" to-port="1" />
		<edge from-layer="2143" from-port="2" to-layer="2144" to-port="1" />
		<edge from-layer="2144" from-port="2" to-layer="2147" to-port="0" />
		<edge from-layer="2145" from-port="1" to-layer="2146" to-port="0" />
		<edge from-layer="2146" from-port="2" to-layer="2147" to-port="1" />
		<edge from-layer="2147" from-port="2" to-layer="2148" to-port="0" />
	</edges>
	<rt_info>
		<MO_version value="2023.3.0-13775-ceeafaf64f3-releases/2023/3" />
		<Runtime_version value="2023.3.0-13775-ceeafaf64f3-releases/2023/3" />
		<conversion_parameters>
			<input value="image" />
			<input_model value="DIR/model_ready.onnx" />
			<input_shape value="[-1, 3, 736, 992]" />
			<is_python_api_used value="False" />
			<mean_values value="[0, 0, 0]" />
			<model_name value="model" />
			<output value="boxes,labels" />
			<output_dir value="DIR" />
			<scale_values value="[255, 255, 255]" />
		</conversion_parameters>
		<legacy_frontend value="False" />
		<model_info>
			<confidence_threshold value="0.275" />
			<iou_threshold value="0.5" />
			<label_ids value="0 1" />
			<labels value="safety unsafety" />
			<model_type value="ssd" />
			<task_type value="detection" />
			<use_ellipse_shapes value="False" />
		</model_info>
	</rt_info>
</net>
